cifar_net.pth (torch, 251604 bytes, 10 tensors)

conv1.weight f4 [6, 3, 5, 5]
0	0xbd8d2d8f	-0.06893455
1	0xbe4c240a	-0.19935623
2	0xbde91509	-0.11380965
3	0xbdf2277b	-0.118239366
4	0xbe04eb89	-0.12980475
5	0xbe4ee693	-0.20205145
6	0xbdfe7ad9	-0.12425775
7	0xbe3513a6	-0.17683277
8	0xbe60dec3	-0.21959977
9	0xbe64506b	-0.22296302
10	0xbe4a6928	-0.19766676
11	0xbe6b231e	-0.22962615
12	0xbe11d3f4	-0.1424101
13	0xbdc098a3	-0.09404113
14	0xbe26a500	-0.1627388
15	0xbdca0cf4	-0.09865752
16	0xbbd8cf40	-0.006616503
17	0xbda26577	-0.07929509
18	0xbea4d7e7	-0.3219597
19	0xbea5a6a5	-0.32353702
20	0xbe4e6b17	-0.20158039
21	0xbe2f6ab7	-0.17130552
22	0xbe2fe09f	-0.1717553
23	0xbe9c6ea1	-0.30553153
24	0xbeb26e1c	-0.34849632
25	0xbd9c3899	-0.07627983
26	0xbe10b590	-0.1413176
27	0xbd008c9f	-0.031384107
28	0xba5a30af	-0.00083232945
29	0x3dc6fb17	0.0971586
30	0xbd92be5f	-0.07165217
31	0xbda787be	-0.08180188
32	0x3af38d4a	0.0018581536
33	0xbca7125a	-0.020394493
34	0x3cbde8ee	0.023182359
35	0x3dd45697	0.10368078
36	0x3e4a3c1e	0.19749495
37	0x3d86c41e	0.06580375
38	0x3df57e9e	0.11987041
39	0xbd685881	-0.05672503
40	0x3e06d1ae	0.13165924
41	0x3da4f7ad	0.08055053
42	0x3d4b0959	0.04956946
43	0x3e15e1b1	0.14636876
44	0xbdceeadb	-0.10103389
45	0x3d91cbd4	0.07118955
46	0x3cd08b75	0.025457123
47	0x3e028c6d	0.1274888
48	0x3e0eac44	0.13932902
49	0x3c078f9e	0.008273987
50	0x3d524724	0.051337376
51	0xbc8c0cb3	-0.0170959
52	0xbde8f603	-0.11375048
53	0x3cd87383	0.026422268
54	0x3e007f25	0.12548502
55	0xbb36718c	-0.0027838675
56	0x3ceead0a	0.029135246
57	0xbc0fd197	-0.008777997
58	0x3dd548c5	0.1041427
59	0x3e16fb65	0.14744337
60	0x3e6becb6	0.23039517
61	0x3e3aada4	0.18230301
62	0x3e9d3951	0.3070779
63	0x3e5305ab	0.20607631
64	0x3e785122	0.242497
65	0x3e8bfc01	0.273407
66	0x3e553aa7	0.20823155
67	0x3e4e5ecf	0.20153354
68	0x3e68f269	0.22748722
69	0x3de04770	0.109511256
70	0x3da4358a	0.08018024
71	0x3e5463e5	0.20741232
72	0x3e7d2721	0.24721958
73	0x3e386993	0.18009023
74	0x3df5a580	0.11994457
75	0x3e3c6174	0.1839655
76	0x3e16569c	0.14681476
77	0x3ea98b7c	0.3311423
78	0x3e4ce5b2	0.20009497
79	0x3dd1f570	0.102518916
80	0x3e6b290e	0.2296488
81	0x3df48936	0.119402334
82	0x3ed8109a	0.42200166
83	0x3efa08a7	0.48834726
84	0x3e2e3f90	0.17016435
85	0xbe55a21e	-0.20862624
86	0xbeda8122	-0.42676646
87	0xbe1da0a5	-0.15393312
88	0xbe922997	-0.28547356
89	0xbc862204	-0.016373642
90	0xbeaebeee	-0.34130043
91	0xbec9c21a	-0.394059
92	0xbe6b8c31	-0.23002698
93	0xbed03a04	-0.40669262
94	0xbe9b0dd2	-0.30283982
95	0x3d3f1717	0.04665288
96	0xbdbb86e8	-0.09156591
97	0x3e3ac03e	0.18237397
98	0x3e0ec961	0.13944007
99	0xbdcadc6d	-0.09905324
100	0xbdf589b7	-0.11989158
101	0xbdc9c016	-0.098510906
102	0x3e6425af	0.2228
103	0x3e289d4f	0.16466258
104	0xbcdbab81	-0.026815178
105	0x3e68974d	0.22713967
106	0x3e31a46e	0.17347881
107	0x3ef35ffb	0.47534165
108	0x3ed4009a	0.4140671
109	0x3d4dbdb0	0.05022973
110	0xbd47c1f3	-0.04876895
111	0xbeca2b5f	-0.39486215
112	0xbea884ed	-0.32913914
113	0xbe3f7739	-0.18697824
114	0xbddcc987	-0.10780626
115	0xbe094470	-0.13405013
116	0xbec3a42f	-0.382112
117	0xbe9a13e9	-0.30093315
118	0xbe804f80	-0.25060654
119	0xbe96553c	-0.29361904
120	0x3e5744ce	0.2102234
121	0x3e057c70	0.1303575
122	0x3e820436	0.25393838
123	0x3df137b9	0.117782064
124	0xbbecb79a	-0.0072240354
125	0xbdd2b1df	-0.102878325
126	0x3c316d2a	0.010829249
127	0x3da45876	0.08024685
128	0xbe01d4d7	-0.12678848
129	0xbcf6b64f	-0.030116228
130	0x3e3f7538	0.18697059
131	0x3dfb541e	0.122719035
132	0x3ed2e29d	0.41188517
133	0x3e1bf13b	0.15228741
134	0x3e642a33	0.22281723
135	0xbc0cf8bc	-0.008604225
136	0xbe4eefca	-0.2020866
137	0xbe304423	-0.17213492
138	0xbe805433	-0.2506424
139	0x3d91313f	0.07089471
140	0x3d7977f7	0.060905423
141	0xbe77afda	-0.24188176
142	0xbdd84858	-0.105606735
143	0xbe7be761	-0.24599983
144	0xbdc79e81	-0.09747029
145	0x3dc389e8	0.09547788
146	0x3e36b034	0.17840654
147	0x3e8ff564	0.28116906
148	0x3e273e0e	0.16332266
149	0x3c75ef7b	0.01501071
150	0x3dd813f6	0.10550682
151	0x3e09e692	0.13466862
152	0xbd6aa0c0	-0.05728221
153	0xbc91e7d6	-0.017810743
154	0x3ea0aa94	0.3138014
155	0x3dae2d70	0.0850476
156	0x3d447c3a	0.047970034
157	0xbc54e4d7	-0.012994013
158	0xbcffa584	-0.031206854
159	0x3e134654	0.14382297
160	0x3e230081	0.15918161
161	0x3e632d3d	0.22185226
162	0x3d45610d	0.048188258
163	0xbe627fe4	-0.22119099
164	0xbc8d33cb	-0.01723661
165	0xbc8c0b8e	-0.017095353
166	0x3dc6526c	0.096836895
167	0xbd34a84e	-0.04410582
168	0xbd90a001	-0.07061768
169	0x3d48efb9	0.049056742
170	0xbd26188d	-0.040550757
171	0x3d91584e	0.07096921
172	0xbd370b81	-0.044688705
173	0xbbd93f84	-0.006629886
174	0x3d2915a6	0.04128041
175	0xbcbb1329	-0.022836285
176	0xbdb0bb6d	-0.08629499
177	0xbe2bdc68	-0.16783297
178	0xbdfdc0fb	-0.12390324
179	0x3b98f275	0.004667575
180	0x3e5d2cd8	0.21599138
181	0x3e53a8e9	0.20669903
182	0xbe54fec4	-0.2080031
183	0xbedbfb72	-0.42965275
184	0xbd98bdce	-0.07458077
185	0x3e11b198	0.14227903
186	0x3e83ebaf	0.2576575
187	0xbdb5e6d4	-0.088819176
188	0xbecfda80	-0.4059639
189	0xbdc072d3	-0.09396901
190	0x3d992d75	0.07479373
191	0x3e32b21d	0.17450757
192	0xbcec8dc0	-0.028876185
193	0xbe9b4ecb	-0.30333552
194	0xbe1a0efb	-0.15044777
195	0x3d9f2ead	0.077725746
196	0xbdf034c5	-0.11728815
197	0x3cfbb751	0.03072706
198	0xbe2fa49c	-0.17152637
199	0xbe1b4fc1	-0.15167142
200	0x3e6e2636	0.23256764
201	0x3cf37e9b	0.029723456
202	0xbda528db	-0.08064433
203	0xbe4d1d2e	-0.20030662
204	0xbb9a7e28	-0.004714746
205	0x3e9c8dca	0.30576926
206	0x3eb24112	0.3481527
207	0xbe3d4864	-0.18484646
208	0xbecc5b3e	-0.39913362
209	0xbe22722d	-0.15863867
210	0x3ec75da3	0.38938627
211	0x3e7bf761	0.24606086
212	0xbd40aa35	-0.047037322
213	0xbed82c89	-0.42221478
214	0xbe56db17	-0.20982014
215	0x3eb8797f	0.36030194
216	0x3eb79f27	0.3586361
217	0x3d9d2394	0.076728016
218	0xbe339813	-0.1753848
219	0xbe32e844	-0.17471415
220	0x3e7d6490	0.24745393
221	0x3e051895	0.12997659
222	0x3db15fd5	0.08660857
223	0xbde578e8	-0.11204702
224	0xbc3a857d	-0.011384365
225	0x3e558a80	0.20853615
226	0x3e8be0e2	0.2732001
227	0x3d9b8465	0.07593612
228	0x3da9aaf4	0.0828456
229	0x3d3a42ca	0.04547385
230	0x3e0fb7ee	0.14035007
231	0x3e1cdc3e	0.1531839
232	0xbd9dffec	-0.07714829
233	0xbdff6f97	-0.12472456
234	0xbd4170bf	-0.047226664
235	0x3e73692a	0.23770586
236	0x3c2d68c8	0.010584064
237	0xbe49b93a	-0.19699565
238	0x3d034236	0.032045566
239	0x3e04f5a7	0.12984334
240	0x3bc864fe	0.006115555
241	0xbec6666c	-0.38750017
242	0xbdb173fc	-0.086647004
243	0x3d4c97be	0.0499494
244	0x3c9969dc	0.018727235
245	0xbeae7722	-0.34075266
246	0xbe36b818	-0.17843664
247	0xbc87533d	-0.016519183
248	0x3e1e9f4c	0.15490454
249	0x3e017e69	0.12645878
250	0xbe245dc6	-0.16051397
251	0x3cea01f7	0.02856539
252	0xbdab1a42	-0.08354618
253	0xbe81b65e	-0.25334448
254	0xbe90a702	-0.28252417
255	0x3d5bb64a	0.05364064

conv1.bias f4 [6]
0	0x3ed335e4	0.41252053
1	0xbf065726	-0.5247673
2	0xbe250c88	-0.16118062
3	0xbee1974c	-0.44060743
4	0x3d9838c6	0.07432704
5	0xbf38f561	-0.7224942

conv2.weight f4 [16, 6, 5, 5]
0	0x3dc9caa3	0.09853103
1	0xbcb69949	-0.022289889
2	0x3c96ce9c	0.018409066
3	0xbb18bb8c	-0.0023305146
4	0x3e0de9e0	0.13858747
5	0x3d2096dc	0.03920637
6	0x3db5e5c6	0.088817164
7	0x3d0cb662	0.03435362
8	0x3e0da890	0.13833833
9	0x3df0e461	0.1176231
10	0x3d1faf33	0.038985442
11	0x3c4805ab	0.012208383
12	0xbdc8b22e	-0.0979961
13	0x3ba53317	0.005041491
14	0xbd4fc68c	-0.05072646
15	0xbd93b424	-0.072120935
16	0xbde72ce1	-0.11287857
17	0xbcc152dc	-0.02359908
18	0xbd661fa1	-0.056182507
19	0xbdc7d742	-0.09757854
20	0xbcbd338a	-0.023095865
21	0x3b7ce69d	0.0038589605
22	0xbd7e757a	-0.062123753
23	0xbd4b9222	-0.04969991
24	0x3de864c5	0.11347345
25	0x3d9ac279	0.07556624
26	0x3dfcfabd	0.12352512
27	0x3dc3999e	0.095507845
28	0x3dbc8468	0.09204942
29	0x3e097da6	0.13426837
30	0x3daed9e7	0.08537655
31	0xbcbe8c86	-0.023260366
32	0xbd98bdd2	-0.0745808
33	0x3d24f169	0.04026929
34	0x3db60901	0.08888436
35	0x3d12893e	0.035775416
36	0x3d2d0fac	0.042251274
37	0x3d703ea2	0.05865348
38	0x3e1a691f	0.15079163
39	0x3e73ac1b	0.23796122
40	0x3d8ffd4a	0.07030733
41	0xbd7109f6	-0.05884739
42	0x3c82fb96	0.015989106
43	0xbc305bc1	-0.010764063
44	0x3dff3aa6	0.12462358
45	0x3e1781f1	0.14795662
46	0x3d5d709c	0.05406247
47	0x3da4f58f	0.08054649
48	0x3d7e9c9c	0.062161073
49	0x3d1e33ea	0.038623728
50	0x3baaeb2a	0.005216022
51	0xbdd51d5c	-0.104059905
52	0xbdcb669f	-0.09931683
53	0xbe1db04a	-0.1539928
54	0xbe98cd4b	-0.29844126
55	0xbdc94c62	-0.09829022
56	0x3af083cb	0.0018349824
57	0xbdb79c4f	-0.089653604
58	0xbe29828b	-0.16553704
59	0xbd019373	-0.03163476
60	0xbda9c000	-0.08288574
61	0xbe1c2626	-0.15248927
62	0xbdf6d2a8	-0.12051898
63	0xbd6c98da	-0.057762958
64	0x3dcac838	0.0990147
65	0xbe5cbd32	-0.21556547
66	0xbe41347e	-0.1886768
67	0xbd0e0f5e	-0.034682624
68	0x3da69c49	0.08135278
69	0x3d8fadd7	0.07015579
70	0xbdd246e1	-0.10267425
71	0xbe2dd44c	-0.16975516
72	0xbdabceda	-0.08389063
73	0x3de210e6	0.11038379
74	0x3dbd6545	0.09247831
75	0xbccc212f	-0.024918167
76	0xbc2d1606	-0.010564333
77	0xbd2d5fc5	-0.04232766
78	0x3d4b7dc8	0.0496805
79	0x3d2cf1c7	0.042222764
80	0xbd190a3b	-0.037363272
81	0x3d024135	0.031800468
82	0xbc0c04db	-0.0085460795
83	0xbcb9fa21	-0.022702279
84	0xbddef52a	-0.10886605
85	0xbd2a4fc5	-0.04157998
86	0xbd4766ab	-0.048681896
87	0x3d38dde8	0.0451335
88	0x3dd1515d	0.10220597
89	0x3da678a9	0.08128483
90	0x3d081093	0.03321893
91	0x3d0a9373	0.033832025
92	0x3e005bbd	0.12534995
93	0x3d7eee6b	0.06223909
94	0x3e125769	0.14291157
95	0xbe3fff51	-0.18749739
96	0xbe278e41	-0.1636286
97	0xb9fdc1a3	-0.0004840019
98	0x3c457fcc	0.012054395
99	0x3d9a13dc	0.07523319
100	0xbec58a3d	-0.3858203
101	0xbe80ce79	-0.25157526
102	0xbe77d0f6	-0.24200806
103	0xbe566bdf	-0.20939587
104	0xbdcb0551	-0.099131234
105	0xbe64d7ab	-0.22347896
106	0xbe981c34	-0.29709017
107	0xbe8081ee	-0.25099128
108	0xbe804cb0	-0.25058508
109	0xbdd86705	-0.105665244
110	0xbc3c06d5	-0.011476238
111	0xbe42739b	-0.18989412
112	0xbe8ce5f7	-0.275192
113	0xbe00c2a5	-0.12574251
114	0xbe08bb1e	-0.1335263
115	0xba9af75a	-0.0011822984
116	0xbd53627e	-0.0516076
117	0xbd0ba27c	-0.034090504
118	0x3d9c6033	0.07635536
119	0xbba02952	-0.0048877383
120	0x3d2eaf63	0.04264773
121	0x3cf7f071	0.030266019
122	0x3db6435d	0.08899567
123	0x3dfac087	0.12243753
124	0x3e4dbf8d	0.20092602
125	0xbe300378	-0.17188823
126	0xbe3e0343	-0.18555932
127	0xbe00c748	-0.1257602
128	0xbe0de236	-0.13855824
129	0xbe1838b6	-0.14865384
130	0x3c89c0d3	0.016815579
131	0xbdfd430d	-0.123663045
132	0xbbbd840c	-0.0057835635
133	0xbceccc34	-0.028905965
134	0xbdeba561	-0.11506153
135	0x3b39c451	0.0028345773
136	0x3d814d79	0.06313605
137	0x3e01ff3c	0.1269502
138	0x3cfcb37c	0.030847304
139	0x3e3ca0d7	0.1842073
140	0x3df35766	0.11881904
141	0x3e4148c7	0.18875419
142	0x3da5e1d4	0.08099714
143	0x3e303d11	0.17210795
144	0x3e28613e	0.16443345
145	0x3dbf5ba8	0.09343654
146	0x3db1fac0	0.08690405
147	0x3d875aee	0.0660914
148	0x3d6384d9	0.055546615
149	0x3e3a15e3	0.18172412
150	0xbddb2686	-0.10700707
151	0xbd83abcf	-0.06429254
152	0xbd979927	-0.07402258
153	0x3c97ce40	0.018530965
154	0x3d9f4e6c	0.0777863
155	0xbd876c80	-0.066124916
156	0xbdbced4a	-0.09224947
157	0x3c481e98	0.012214325
158	0x3d823583	0.06357863
159	0x3d81a852	0.06330933
160	0xbe1cf6cd	-0.15328522
161	0xbd4ebcdf	-0.05047309
162	0xbdb7a164	-0.0896633
163	0x3c091ae3	0.008368227
164	0x3e977c14	0.29586852
165	0xbe8bb0ff	-0.27283475
166	0xbdfe6f58	-0.12423581
167	0x3d595ea8	0.053068787
168	0x3e3a59e8	0.18198359
169	0x3eae52dd	0.34047595
170	0xbe4665bd	-0.19374748
171	0xbe1291e4	-0.14313465
172	0xbd182798	-0.037147135
173	0x3e44d61f	0.19222306
174	0x3edc3fbf	0.43017384
175	0x3dc0d4ba	0.09415574
176	0x3e10f8e5	0.14157446
177	0xbcee1b5e	-0.029065784
178	0xbd311b84	-0.04323913
179	0x3c6c307e	0.014415858
180	0xbd3b0278	-0.04565665
181	0xbd7a9d0d	-0.06118493
182	0xbc9110f1	-0.017708274
183	0xbd061934	-0.03273888
184	0x3cff178d	0.03113916
185	0x3d90dd8b	0.07073506
186	0x3ddbec0c	0.10738382
187	0x3cca77c2	0.024715308
188	0xbd1bfe85	-0.038084526
189	0xbcaff592	-0.021479402
190	0x3d210550	0.039311707
191	0x3b52a73a	0.0032143132
192	0x3d25dec5	0.040495653
193	0xbe07bf50	-0.13256574
194	0xbcfefc55	-0.03112618
195	0xbd74dd49	-0.059781346
196	0xbc7118e5	-0.014715408
197	0xbc847c2b	-0.01617249
198	0xbdb604ce	-0.08887635
199	0xbc3ea967	-0.011637068
200	0x3e4fbeef	0.20287679
201	0x3e0637ae	0.13107178
202	0x3bf2adb4	0.007405961
203	0x3dde388f	0.108506314
204	0x3e3012ee	0.17194721
205	0x3e53eada	0.20695058
206	0x3d86289a	0.06550713
207	0x3d37ccb3	0.04487295
208	0x3d4e255e	0.050328605
209	0x3cc1717c	0.023613684
210	0x3e2efecd	0.17089386
211	0x3e0ba1b7	0.13635908
212	0x3ddc1d3e	0.10747765
213	0x3db817c4	0.08988908
214	0x3d4c213d	0.049836386
215	0x3e2ae25d	0.16687913
216	0x3e0ad965	0.13559492
217	0xbc27db4a	-0.010245154
218	0x3d7bb440	0.061451197
219	0x3bd73361	0.006567404
220	0x3c638f49	0.013889142
221	0x3de1877e	0.11012171
222	0x3df65c23	0.120292924
223	0x3d186dd0	0.0372141
224	0xbb464411	-0.0030252973
225	0xbe52e1e4	-0.20593983
226	0xbe3fa6ea	-0.18716016
227	0xbdb3c899	-0.08778495
228	0xbe1ad99f	-0.15122078
229	0xbddaf084	-0.10690406
230	0xbdde0c83	-0.1084223
231	0xbdc8f2c0	-0.09811926
232	0xbd9fe10b	-0.078065954
233	0xbdb8ab28	-0.090170205
234	0x3d04e570	0.03244537
235	0xbde9cfd4	-0.11416593
236	0xbd925c59	-0.0714652
237	0x3c45eeb1	0.012080834
238	0x3d18b7fa	0.03728483
239	0x3d1b357b	0.0378928
240	0xbc0b32b4	-0.008495975
241	0x3ab6a20b	0.0013933791
242	0xbcb445a0	-0.022005856
243	0xbda62ff5	-0.08114616
244	0xbcd84703	-0.026401049
245	0xbd0d3a96	-0.0344797
246	0xbdfad63f	-0.122478954
247	0xbdb26738	-0.08711094
248	0x3d7df080	0.061996937
249	0xbd5819b6	-0.052758895
250	0xbc312f17	-0.01081445
251	0xbe375048	-0.17901719
252	0xbd78ba8d	-0.060724784
253	0xbd8fbee9	-0.07018835
254	0xbdc5a6a8	-0.09650928
255	0x3be8be6a	0.0071027773

conv2.bias f4 [16]
0	0x3f129629	0.57260376
1	0xbcc27a55	-0.023739973
2	0x3ed7b96d	0.42133656
3	0xbf13c302	-0.57719433
4	0x3da12645	0.078686275
5	0xbd9069e6	-0.070514485
6	0xbe0b225c	-0.13587326
7	0xbe2f754f	-0.17134593
8	0xbe8a8014	-0.2705084
9	0x3f03e48a	0.515206
10	0xbe291e0b	-0.16515367
11	0x3ec608a2	0.3867846
12	0xbde4547c	-0.111489266
13	0x3ed4bc96	0.4155013
14	0xbf1127c7	-0.5670132
15	0xbddc99b4	-0.10771504

fc1.weight f4 [120, 400]
0	0xbc1891ae	-0.0093120765
1	0xbd2b608d	-0.041840125
2	0x3d52a546	0.05142715
3	0xbb737c7a	-0.0037153051
4	0x3c5b53a9	0.013386645
5	0x3cd535f5	0.026026705
6	0x3cc5adda	0.02413075
7	0xbd010d14	-0.031506613
8	0x3be27e50	0.0069120303
9	0xbd3df61c	-0.046377286
10	0xbd27c4c3	-0.04095913
11	0x3d000ede	0.03126418
12	0x3c1e912b	0.009678165
13	0xbc80563b	-0.015666118
14	0xbcd4a039	-0.025955306
15	0x3c23957f	0.009984373
16	0xbcd93062	-0.026512329
17	0xbbc79aa3	-0.006091432
18	0x3b3d97ae	0.002892952
19	0x3caf1605	0.021372804
20	0xbcd6be8b	-0.026213905
21	0x3abe58bc	0.0014522295
22	0xbd0cff04	-0.03442289
23	0xbd049434	-0.0323679
24	0xbcc8b989	-0.024502533
25	0xbbc6a1a0	-0.0060617477
26	0x3ccdcef9	0.025123106
27	0x3d18cd6c	0.03730528
28	0xbd4a6cfa	-0.049420334
29	0xbcd07561	-0.025446596
30	0x3d417b34	0.047236636
31	0x3cd1c401	0.025606157
32	0x3d1dbc54	0.03850968
33	0x3bdcb2f4	0.0067352
34	0x3c486ba9	0.012232699
35	0xbc8557d5	-0.016277233
36	0x3ceb58ac	0.028728805
37	0x3c2bf8ac	0.0104963
38	0xbc1845d7	-0.009293995
39	0xbd155ce8	-0.036465555
40	0xbcf2698c	-0.029591344
41	0xbd2d69b3	-0.04233713
42	0xbd189bc2	-0.037257917
43	0x3c942924	0.018086024
44	0xbcf78e8a	-0.030219335
45	0xbb06e18c	-0.0020581214
46	0xbb7b81ef	-0.0038377007
47	0xbd0ca9a4	-0.03434147
48	0x3c9bb468	0.019006923
49	0xbd088bdf	-0.033336516
50	0xbb7dbaa5	-0.0038715985
51	0x3d50f03d	0.05101036
52	0x3d250e76	0.040296994
53	0x3d104dcf	0.035230454
54	0x3d0aaa7c	0.033853993
55	0x3d23e203	0.040010463
56	0xbd40df65	-0.047088046
57	0xbca40531	-0.020022007
58	0x3cc5de45	0.024153838
59	0xbd3e29ae	-0.046426468
60	0x3c53afb0	0.012920305
61	0x3d016d52	0.031598397
62	0x3ce7989e	0.028271016
63	0xbcb14661	-0.021640005
64	0x3c2d4935	0.010576536
65	0x3b294fd6	0.002583494
66	0xbcc0aeeb	-0.023520907
67	0x3d0b158b	0.03395609
68	0x3c2d100c	0.010562908
69	0x3d21dd15	0.03951748
70	0x3c469676	0.012120834
71	0x3cef7b4e	0.029233601
72	0x3b86a023	0.0041084453
73	0xbcd69df4	-0.026198365
74	0x3c7a5af2	0.015280472
75	0xbcb3ac94	-0.021932878
76	0x3d16217e	0.036653034
77	0xbcbb9a68	-0.022900775
78	0x3d21c165	0.039491076
79	0xbc8b03fd	-0.016969675
80	0xbd051d33	-0.03249855
81	0x3cd7223f	0.026261447
82	0x3cac171c	0.021007113
83	0xbd135563	-0.035970103
84	0xbd115ebc	-0.035490736
85	0xbd2b49dc	-0.041818485
86	0xbd0e6419	-0.03476343
87	0x3c630f76	0.013858667
88	0xbcb1181c	-0.021617942
89	0xbc15ca52	-0.009142475
90	0x3cd84c24	0.026403494
91	0x3ac70149	0.0015182878
92	0x3a827e67	0.0009955884
93	0x3c0cb801	0.008588792
94	0xbceb1019	-0.0286942
95	0xbcc47d7c	-0.023985617
96	0xbab30ad1	-0.001365984
97	0xbd4b84de	-0.04968726
98	0x3c7976a1	0.015226037
99	0xbcd41c17	-0.0258923
100	0x3cf97897	0.03045301
101	0x3d22a661	0.039709453
102	0xbd4074ee	-0.046986513
103	0xbd4b320c	-0.049608275
104	0x3c1536c4	0.009107295
105	0x3c10e93b	0.008844669
106	0xbd2410e2	-0.040055163
107	0x3bdf613b	0.0068170107
108	0x3d1d91c6	0.0384691
109	0xbd3240ea	-0.043518938
110	0x3c02c110	0.0079806
111	0xbd1ef116	-0.038804136
112	0x3d0f2e52	0.034956284
113	0x3c0275c7	0.007962651
114	0xbcf78d0e	-0.030218627
115	0xbc5c8f61	-0.013461919
116	0xbc9b6025	-0.018966744
117	0x3cf659f6	0.030072194
118	0x3cfdcebb	0.030982366
119	0x3d1cd3f2	0.038288064
120	0x3c83600d	0.016037012
121	0x3bbdd912	0.005793699
122	0xbd429a28	-0.047510296
123	0x3cd07540	0.025446534
124	0x3d187c71	0.03722805
125	0xbd1fd3ea	-0.039020456
126	0x3d12f01a	0.03587351
127	0xbd41b343	-0.047290098
128	0xbd0913c4	-0.033466116
129	0x3d19795e	0.03746926
130	0x3d22bf48	0.0397332
131	0xbb07bd96	-0.0020712367
132	0xbd70ba63	-0.058771502
133	0x3ccdb214	0.025109328
134	0x3cd2bb19	0.02572398
135	0x3cd23765	0.02566118
136	0x3cd2bc5a	0.025724579
137	0x3d2a67f5	0.041603047
138	0xbc950f8e	-0.018195894
139	0x3ab65037	0.0013909404
140	0x3d132858	0.035927147
141	0x3d4b57ff	0.049644466
142	0xbccf3320	-0.025292933
143	0x3ce494bb	0.027902951
144	0xbcd93575	-0.026514748
145	0xbc64fbc5	-0.013976042
146	0x3c3d5de1	0.011558027
147	0xbc7240da	-0.01478597
148	0xbcfa1125	-0.030525753
149	0xbd3aa5b6	-0.04556819
150	0x3d27aadb	0.040934425
151	0x3aebba22	0.0017984549
152	0xbd4c3856	-0.049858414
153	0xbcd196bd	-0.025584573
154	0xbc9904a3	-0.018678969
155	0xbccf0406	-0.025270473
156	0xbbd55b43	-0.0065111234
157	0xbc999eb0	-0.018752426
158	0x3d0b58c0	0.034020185
159	0xbd253d21	-0.0403415
160	0xbcaa6006	-0.02079774
161	0x3d3ee693	0.04660661
162	0x3c001cba	0.007819349
163	0xbd17edfb	-0.03709219
164	0xbcaedea1	-0.021346392
165	0x3d2a0e35	0.041517455
166	0xbcf9818e	-0.030457284
167	0xbd225ea8	-0.039641052
168	0x3cae1634	0.021250822
169	0xbb2630ec	-0.002535875
170	0xbca7b891	-0.02047375
171	0xbcc0e3c0	-0.0235461
172	0x3c0f8cfb	0.00876164
173	0x3d2d76e2	0.042349704
174	0xbcbafdee	-0.022826161
175	0x3bff4cc4	0.0077911336
176	0x3c8daf55	0.017295519
177	0x3cf99f38	0.03047143
178	0x3d23eee3	0.040022742
179	0x3b722d74	0.0036953362
180	0xbce89fbb	-0.028396478
181	0xbcc0e627	-0.023547245
182	0x3d071911	0.03298289
183	0xbc93740d	-0.017999673
184	0x3c25bbb9	0.010115557
185	0xbd3eb3b1	-0.046558086
186	0x3cb6af6f	0.02230045
187	0xbcce9c1c	-0.025220923
188	0x3c2e766a	0.010648349
189	0x3d33aa41	0.04386354
190	0x3d348110	0.044068396
191	0x3d3beb94	0.04587896
192	0x3c975df5	0.01847742
193	0x3c0a3195	0.008434673
194	0xbd1152f8	-0.035479516
195	0xbd25a8cc	-0.04044418
196	0x3d5c106e	0.053726606
197	0x3d34d06d	0.044144083
198	0xbd11f38d	-0.03563266
199	0x3c331097	0.010929248
200	0x3c69d707	0.014272458
201	0x3ca2a8cb	0.019855877
202	0x3c918ca3	0.017767256
203	0xbd4db987	-0.05022576
204	0xbbde3405	-0.0067811036
205	0x3cec2a8c	0.028828882
206	0xbbb72160	-0.0055886954
207	0xbd2b6742	-0.04184652
208	0xbd35c50c	-0.04437737
209	0x3d21c56f	0.039494928
210	0xbcc7f0ea	-0.024406869
211	0xbcc23cab	-0.02371057
212	0x3b85c072	0.004081779
213	0xbcded59c	-0.027201466
214	0x3d4883f9	0.048953984
215	0x3cf3c90a	0.029758949
216	0x3d01f33e	0.031726114
217	0x3c059cda	0.008155072
218	0x3882d22e	6.238032e-05
219	0x3d0c8dc7	0.034314897
220	0x3d17e777	0.037085976
221	0x3c1b4cee	0.009478791
222	0x3b6bf3c0	0.003600344
223	0x3d59517a	0.053056218
224	0xbd165f4d	-0.03671198
225	0xbd123dd3	-0.03570349
226	0x3d29434e	0.041323952
227	0x39e5ef28	0.0004385647
228	0xbd04067e	-0.032232754
229	0x3d06fbb4	0.032954887
230	0x3cf4ee56	0.029898804
231	0x3c2f0e66	0.010684585
232	0x3cf8a431	0.03035173
233	0xbc45f6a1	-0.012082727
234	0xbcfa9838	-0.030590162
235	0xbd2b1b42	-0.041774042
236	0xbd28a6f1	-0.041174833
237	0x3c8ad5b4	0.016947605
238	0x3b24ad75	0.0025127803
239	0x3cf744cd	0.030184174
240	0x3c947cd2	0.018125925
241	0x3ad70c80	0.0016406924
242	0xb9c84676	-0.0003819947
243	0xbd1d83cd	-0.038455773
244	0xbc935545	-0.017984996
245	0xbd000689	-0.031256232
246	0x3d3182f9	0.043337796
247	0xbd0cadaa	-0.034345306
248	0x3d073c01	0.03301621
249	0xbccacdd6	-0.024756353
250	0x3cfdb9e3	0.030972427
251	0xbd141ee3	-0.03616227
252	0xbcbf03f2	-0.023317311
253	0x3cab6b75	0.020925263
254	0x3c65f306	0.014034992
255	0x3bbb66ae	0.0057190275

fc1.bias f4 [120]
0	0xba51aeae	-0.00079987466
1	0xbd250288	-0.040285617
2	0x3cc3c86a	0.023899276
3	0x3d95c18e	0.07312308
4	0x3d0956e5	0.033530135
5	0xbd011fff	-0.031524654
6	0xbe157b47	-0.14597808
7	0x3d17627c	0.036959156
8	0x3d0bccf2	0.034130998
9	0xbd29536d	-0.041339327
10	0x3cf37387	0.029718174
11	0x3d86924d	0.065708734
12	0x3dcc1ba1	0.09966207
13	0x3d351577	0.044209924
14	0x3c59bb12	0.01328923
15	0x3d547666	0.051870726
16	0x3cb657f5	0.022258738
17	0xbd4b3ac4	-0.04961659
18	0x3caf0899	0.021366404
19	0x3cb893ad	0.022531355
20	0x3e210ec2	0.15728286
21	0x3cb3412e	0.021881666
22	0xbcd95bb5	-0.026532987
23	0x3d9e65e0	0.07734275
24	0xbc9d4869	-0.019199567
25	0xbccc5b43	-0.02494586
26	0x3c0fb681	0.00877154
27	0xbe0aab89	-0.13541998
28	0x3d58651d	0.052830804
29	0xbc82cdfc	-0.015967362
30	0x3d847c94	0.06469074
31	0x3d8207b3	0.06349125
32	0x3d3ef782	0.04662276
33	0x3d1af68f	0.037832793
34	0x3e476703	0.1947289
35	0x3c1e4e81	0.0096622715
36	0x3e018329	0.1264769
37	0x3dbe33d2	0.09287228
38	0x3d0dacd4	0.03458865
39	0x3d26feba	0.04077027
40	0xbc354937	-0.011064819
41	0xbdecaa86	-0.11555962
42	0xbc675947	-0.0141204065
43	0x3c53cb92	0.012926953
44	0x3db4c242	0.08826114
45	0x3d52f8fb	0.051506978
46	0x3973fc89	0.00023268363
47	0x3c75a767	0.014993525
48	0xbd9ad81d	-0.075607516
49	0xbd3ab437	-0.045582023
50	0x3dd9db6d	0.10637555
51	0x3db7d513	0.089761876
52	0x3d08214b	0.033234876
53	0x3c916402	0.017747883
54	0x3d36e655	0.044653255
55	0xbc4d46eb	-0.012529115
56	0xbd15ecc7	-0.03660276
57	0x3d9ae6ee	0.075635776
58	0xbe0551bb	-0.13019459
59	0x3e4b980c	0.1988222
60	0x3daa2859	0.08308477
61	0x3c150724	0.009095941
62	0x3d9f9879	0.07792754
63	0x3baa9270	0.005205445
64	0xbcac6538	-0.021044359
65	0x3c66504f	0.014057233
66	0x3bb22eda	0.005437714
67	0xbc4453ac	-0.01198284
68	0xbd89d00c	-0.06729135
69	0x3d14175b	0.036155086
70	0xbc4b5d8f	-0.012412443
71	0x3e6f1a5d	0.233499
72	0xbd49df25	-0.049285073
73	0x3bb15541	0.0054117744
74	0xbd72028e	-0.059084468
75	0x3db41bf9	0.08794398
76	0x3df8f831	0.12156714
77	0x3dad81ff	0.084720604
78	0x3e0474c1	0.12935163
79	0xbd53f92a	-0.051751293
80	0x3d816cd5	0.06319586
81	0x3e2ecdef	0.17070745
82	0xbcbb045c	-0.022829227
83	0x3d06ec9b	0.03294049
84	0x3e23613b	0.15955059
85	0x3d3a7057	0.045517292
86	0x3d45d230	0.048296154
87	0x3ca40035	0.02001963
88	0xbd34357c	-0.04399632
89	0xbd71a553	-0.058995556
90	0x3bebd7dc	0.0071973633
91	0x3e86843a	0.26272756
92	0x3ceb6035	0.028732399
93	0xbcf1a110	-0.029495746
94	0xb90ef84f	-0.00013634677
95	0x3e10b95b	0.14133207
96	0xbcdc4b2a	-0.02689131
97	0xbe227413	-0.15864591
98	0xbd9b3112	-0.07577719
99	0xbcf606ed	-0.0300326
100	0x3b881cfe	0.0041538468
101	0xbd2dbba4	-0.042415276
102	0xbd86480a	-0.06556709
103	0x3db8d9e9	0.09025938
104	0x3cf2f4fe	0.029657837
105	0x3ddf3b33	0.10899963
106	0x3d8aaa8c	0.067708105
107	0xbd8dac55	-0.06917635
108	0x3d9c66e6	0.07636814
109	0xbd3d1667	-0.046163943
110	0xbd80c6ef	-0.062879436
111	0x3d4040bf	0.046936747
112	0x3d2e846a	0.04260675
113	0xbd11729a	-0.035509683
114	0xbd4b79e5	-0.049676795
115	0x3c5a7e8b	0.013335834
116	0xbcfffa65	-0.031247327
117	0x3e13bcfa	0.14427558
118	0xbdd48382	-0.103766456
119	0x3d512762	0.05106295

fc2.weight f4 [84, 120]
0	0x3d9d3813	0.07676711
1	0xbc50fbbd	-0.012755332
2	0xbd9e22d4	-0.07721487
3	0xbe1af858	-0.15133798
4	0xbda88ef0	-0.08230388
5	0xbdca35de	-0.098735556
6	0x3d64a3d3	0.055820297
7	0x3d54b752	0.05193264
8	0xbb9bec4f	-0.004758395
9	0x3ce74d76	0.028235178
10	0xbe01e084	-0.12683302
11	0x3d94b51c	0.07261106
12	0x3c886716	0.016650718
13	0x3bf79603	0.0075557246
14	0x3d06a84f	0.032875355
15	0xbe0e1af0	-0.13877463
16	0x3d0aaa3e	0.03385376
17	0x3d5d4443	0.054020178
18	0xbe42fe42	-0.19042304
19	0xbdd78965	-0.10524253
20	0x3d62d036	0.055374347
21	0xbca7dd75	-0.020491341
22	0x3dddc261	0.108280905
23	0x3d5ee4f7	0.054417577
24	0xbcc313e6	-0.0238132
25	0xbc9886ea	-0.01861902
26	0x3e24f355	0.16108449
27	0x3cbc7c4c	0.023008488
28	0x3cbb4bd2	0.022863302
29	0x3d5128d3	0.051064324
30	0x3b495a44	0.0030723969
31	0xbd7aca1b	-0.0612279
32	0xbde8fcea	-0.113763645
33	0x3d6ed80a	0.0583115
34	0xbdbbe95d	-0.0917537
35	0xbc47fbd4	-0.012206037
36	0x3dd61998	0.104541
37	0xbe7d42c6	-0.24732503
38	0x3e5f7872	0.2182329
39	0xbdb981cf	-0.09057962
40	0xbcf58cf8	-0.029974446
41	0x3de2c217	0.11072176
42	0x3db2b0d2	0.08725132
43	0xbdf96d1f	-0.12179016
44	0x3d0acc99	0.033886526
45	0xbe2878d6	-0.16452345
46	0x3c463f91	0.012100116
47	0x3d0a762a	0.033804096
48	0x3e03c092	0.12866428
49	0xbc79131e	-0.015202312
50	0x3de7c2a1	0.113164194
51	0xbca2672c	-0.019824587
52	0xbd8901ca	-0.06689794
53	0x3d043605	0.03227808
54	0x3c9db8a5	0.019253084
55	0x3d878b68	0.066183865
56	0x3c1980b6	0.009369066
57	0xbdc3059b	-0.095225535
58	0x3bbab1f1	0.005697482
59	0xbc87d457	-0.016580744
60	0xbdb33af8	-0.08751482
61	0xbe05918a	-0.130438
62	0x3d88b01a	0.06674214
63	0xbd3e92da	-0.046526767
64	0xbe128306	-0.14307794
65	0xbcf82529	-0.030291157
66	0xbc991057	-0.01868455
67	0xbd277206	-0.040880226
68	0x3d4956cc	0.04915504
69	0xbe1b3f0d	-0.1516077
70	0x3d314936	0.04328271
71	0xbce92d1f	-0.028463898
72	0x3bad012b	0.0052796802
73	0x3d41db2d	0.047328163
74	0x3d1adad6	0.037806354
75	0x3c87b28b	0.016564628
76	0x3e3ecb29	0.18632187
77	0xbd5c974b	-0.05385522
78	0x3daa2ef4	0.08309737
79	0xbd59a0a3	-0.05313171
80	0xbd3ee19b	-0.046601873
81	0xbda0ab6c	-0.07845196
82	0x3cecc4c0	0.028902411
83	0x3d63fc35	0.055660445
84	0x3daa478a	0.08314426
85	0x3ded04aa	0.11573155
86	0xbe32e3db	-0.17469732
87	0xbe22f194	-0.15912467
88	0xbcd5809a	-0.026062299
89	0x3e022737	0.12710272
90	0xbd4732fd	-0.04863261
91	0xbdcd7e4c	-0.10033855
92	0x3d14e9c8	0.036355764
93	0x3c9454c0	0.018106818
94	0x3d6d7fc3	0.05798317
95	0xbd891b3d	-0.066946484
96	0xbce6db77	-0.02818082
97	0x3cf23cce	0.02957001
98	0xbe41a590	-0.18910813
99	0x3cabb46a	0.020960052
100	0xbdbcaf70	-0.092131495
101	0xbcb0e813	-0.021595037
102	0x3dccf7e9	0.100082226
103	0x3d6deba7	0.058086064
104	0xbde15036	-0.11001627
105	0xbe00ca1f	-0.12577103
106	0x3d29da9a	0.04146824
107	0x3e28b4d9	0.16475238
108	0xbc1ec31d	-0.009690073
109	0x3d455500	0.048176765
110	0xbbb403b1	-0.005493604
111	0x3d87d7a1	0.06632925
112	0x3da822b2	0.082097426
113	0x3d9fb020	0.07797265
114	0xbd2c896a	-0.042123236
115	0xbd79e8be	-0.061012976
116	0xbdb9683b	-0.090530835
117	0xbe221891	-0.15829684
118	0x3dd3471f	0.103163
119	0x3d7261f2	0.05917544
120	0x3da82444	0.08210042
121	0xbd8a3872	-0.06749047
122	0xbdac17f6	-0.08403008
123	0xbe12af3c	-0.14324659
124	0xbdecefb3	-0.115691565
125	0xbbe8ff31	-0.0071104993
126	0x3d4a729b	0.049425703
127	0x3b8dea0f	0.0043308805
128	0xbc81fc9b	-0.015867522
129	0x3cdd4ea2	0.027015034
130	0x3d90ef8b	0.07076939
131	0x3d942221	0.07233072
132	0xbd1deb70	-0.03855461
133	0xbdbe4cd8	-0.092920005
134	0x3d1e7414	0.03868492
135	0xbbfb1618	-0.007662546
136	0xbdbe7d9a	-0.093013
137	0xbc3d115d	-0.011539784
138	0x3d45e1db	0.048311096
139	0x3d157ef1	0.036498014
140	0x3c7d587a	0.015462989
141	0xbb8be0a6	-0.0042687235
142	0x3cb43f88	0.02200295
143	0x3c81a73f	0.01582682
144	0x3d48ff8e	0.04907184
145	0x3d0e5ae4	0.03475465
146	0xbddb4452	-0.107063904
147	0xbb7f73ec	-0.0038979007
148	0x3d20b318	0.039233297
149	0xbd216fe7	-0.03941336
150	0xbda85434	-0.082191855
151	0xbd9ee6c2	-0.07758857
152	0xbd62c49a	-0.055363275
153	0xbd0bdb4f	-0.034144696
154	0x3d510f18	0.051039785
155	0x3dbab60c	0.09116754
156	0x3d3cafa0	0.046065927
157	0xbcf0fe88	-0.029418245
158	0x3daafcf7	0.083490305
159	0x3cc90c66	0.024542045
160	0xbd65de67	-0.056120303
161	0x3ceec52a	0.02914675
162	0xbc88b445	-0.016687522
163	0x3d84ad4b	0.064783655
164	0x3d84ccc6	0.0648437
165	0xbd366f04	-0.044539467
166	0x3da52352	0.080633774
167	0xbd9a61a0	-0.07538152
168	0xbb521301	-0.0032054784
169	0xbda7beed	-0.08190713
170	0xbe268d37	-0.16264807
171	0x3d447773	0.04796548
172	0xbd7fece2	-0.06248177
173	0x3ca2509a	0.019813824
174	0x3d078df2	0.033094354
175	0xbd80b57f	-0.06284618
176	0xbdc7b06a	-0.09750445
177	0x3cbce675	0.02305911
178	0xbd15b79c	-0.036552057
179	0xbdaea756	-0.085280105
180	0xbd0fdd5c	-0.035123214
181	0x3cafbaf2	0.021451447
182	0x3daf724d	0.08566723
183	0xbcb920ed	-0.022598708
184	0xbe1b7d56	-0.1518453
185	0x39d8d3d2	0.0004135655
186	0xbbe6b92d	-0.0070411176
187	0xbdb05a8b	-0.0861102
188	0x3ca83145	0.020531306
189	0xbdb40532	-0.087900534
190	0x3d8bbe6a	0.06823428
191	0xbc903d38	-0.017607316
192	0x3d5ade46	0.053434633
193	0xbdaca997	-0.08430784
194	0x3d12fcc7	0.0358856
195	0xbcb19391	-0.02167681
196	0x3da5a414	0.08087936
197	0x3d0de8f0	0.034645975
198	0xbdcfacd1	-0.10140384
199	0x3c10ae1b	0.0088305725
200	0x3cdbfadc	0.026853018
201	0xbda60a52	-0.08107437
202	0x3d2e9d38	0.042630404
203	0xbc487454	-0.012234766
204	0x3df77884	0.120835334
205	0xbd645f31	-0.055754844
206	0x3d65c85e	0.05609929
207	0xbd443340	-0.04790044
208	0x3cbbd386	0.02292801
209	0x3d56ff9b	0.052489858
210	0x3c9fcfef	0.01950833
211	0xbe0a3bf0	-0.13499427
212	0xbb9f1393	-0.0048546284
213	0x3c018222	0.007904561
214	0x3dbdb54b	0.092630945
215	0x3d7f7add	0.06237303
216	0xbc9da177	-0.019242031
217	0x3dd427c4	0.10359147
218	0x3d308d2c	0.043103382
219	0xbdd62c99	-0.10457725
220	0xbae1b0b2	-0.0017218797
221	0xbcd44d63	-0.025915807
222	0x3cee8e0d	0.02912047
223	0xbd2f33d2	-0.04277403
224	0xbd97216b	-0.07379421
225	0xbca33a13	-0.019925153
226	0x3da35c38	0.07976574
227	0x3e17caa4	0.14823395
228	0xbdb11282	-0.08646108
229	0x3ab80d47	0.0014042043
230	0xbd0f84b1	-0.035038654
231	0x3d503954	0.050835922
232	0x3d505b30	0.050868213
233	0x3db5d219	0.088779636
234	0xbd8b350e	-0.06797229
235	0xbce7a9a1	-0.028279128
236	0x3d4d3dea	0.050107874
237	0x3dc03172	0.09384431
238	0x3cc47993	0.023983752
239	0xbd95743c	-0.072975606
240	0xbc9ab5b3	-0.018885469
241	0xbd7e8d31	-0.06214637
242	0x3d47950b	0.048726123
243	0x3c32a848	0.010904379
244	0xbda8fc22	-0.082512155
245	0xbdb87d93	-0.090083264
246	0xbc34060e	-0.010987772
247	0x3d88a2a2	0.06671645
248	0xbdbdb837	-0.09263652
249	0x3c99dd5b	0.018782308
250	0xbd0248b2	-0.03180761
251	0x3ac7d23a	0.0015245148
252	0xbd3ba866	-0.045814894
253	0x3b027232	0.0019904491
254	0xbdaebf70	-0.085326076
255	0xbdb003a0	-0.085944414

fc2.bias f4 [84]
0	0xbe1666a6	-0.14687595
1	0x3b2ad679	0.0026067777
2	0xbcbf9775	-0.02338765
3	0x3e8317e1	0.25604156
4	0x3e67e033	0.22644119
5	0x3e2ac310	0.16675973
6	0x3e769657	0.24080788
7	0x3d98b81f	0.07456993
8	0x3df6082f	0.1201328
9	0xbcda44b3	-0.026644086
10	0xbe1d3064	-0.15350491
11	0xbc8cf862	-0.017208282
12	0x3d80db28	0.06291801
13	0xbd10c9d7	-0.03534874
14	0x3e453663	0.19259028
15	0xba9ee032	-0.0012121259
16	0x3c437904	0.011930708
17	0x3d78b052	0.060715027
18	0x3d064e7f	0.032789703
19	0xbb806b7a	-0.003919062
20	0x3d50d790	0.050986826
21	0x3dc78443	0.09742024
22	0x3e070c51	0.13188292
23	0x3d4964bc	0.049168333
24	0xbc95f131	-0.018303486
25	0x3e70828c	0.234873
26	0xb9cd074f	-0.00039106092
27	0x3e1255df	0.1429057
28	0x3de81017	0.11331194
29	0x3e832b9e	0.25619215
30	0xbd1210f3	-0.035660695
31	0x3e1db482	0.1540089
32	0xbd55c091	-0.0521856
33	0x3ea5e5fb	0.32402024
34	0xbde2531b	-0.11051007
35	0x3eab6405	0.33474746
36	0xbe06f2b6	-0.13178524
37	0xbd8a9747	-0.06767135
38	0xbd89716f	-0.06711089
39	0xbe14c4db	-0.1452822
40	0xbcd8db40	-0.026471734
41	0x3d9eb9da	0.07750292
42	0x3e6d778e	0.23190138
43	0xbddab768	-0.10679513
44	0x3c530b85	0.012881164
45	0x3d939aed	0.07207284
46	0x3e1cea30	0.1532371
47	0xbd45b3e9	-0.04826728
48	0x3e347bda	0.1762537
49	0x3df5094b	0.11964663
50	0xbdbbc4ef	-0.091684215
51	0xbcf49460	-0.029855907
52	0x3b3b2cb9	0.0028560592
53	0xbdd8b7fd	-0.10581968
54	0x3e747881	0.23874094
55	0x3e458a24	0.19290978
56	0x3e5a7a26	0.21335658
57	0xbca2b1da	-0.019860197
58	0x3bb0bab8	0.0053933524
59	0x3e68c1f6	0.2273024
60	0x3e82fb18	0.25582194
61	0xbc8ef6f3	-0.017451739
62	0x3eb0a7a3	0.34502897
63	0x3e835faf	0.25658938
64	0x3e99809e	0.2998094
65	0x3e7cadff	0.24675749
66	0x3e242ff5	0.16033919
67	0x3e321f3b	0.17394726
68	0x3dba5f15	0.09100167
69	0x3d7a04a2	0.061039574
70	0x3d07aecb	0.03312568
71	0x3d899f6e	0.06719862
72	0x3d762914	0.06009777
73	0x3e7c2c1d	0.24626203
74	0x3d6571ff	0.05601692
75	0x3d769a1e	0.06020557
76	0xbd7e013b	-0.062012892
77	0x3dd39769	0.103316136
78	0xbdcbe0bb	-0.09954973
79	0x3bf4d032	0.007471108
80	0x3d476ab0	0.04868573
81	0xbdc15327	-0.09439688
82	0xbd165288	-0.0366998
83	0x3e7db3f9	0.24775685

fc3.weight f4 [10, 84]
0	0xbc097b76	-0.008391252
1	0x3e75fff1	0.24023415
2	0x3ce16a5d	0.027516538
3	0x3dfc5348	0.12320572
4	0x3d9598e4	0.07304552
5	0xbdee2f72	-0.11630143
6	0x3d025f9e	0.03182947
7	0x3dc4bf77	0.096068315
8	0x3d0d4303	0.034487735
9	0xbd025fef	-0.03182977
10	0x3e411337	0.18854986
11	0x3c714ddf	0.014728039
12	0xbe1d1e35	-0.15343554
13	0xbde203c8	-0.110358775
14	0x3e5561c0	0.2083807
15	0x3d157b40	0.036494493
16	0x3e47785a	0.19479504
17	0x3dd9121e	0.10599159
18	0x3c98609f	0.01860076
19	0xbddaa541	-0.10676051
20	0xbdc64186	-0.09680466
21	0x3d41e765	0.047339816
22	0xbe284b87	-0.16435061
23	0x3e8696aa	0.26286823
24	0x3cd20436	0.025636774
25	0x3d30637f	0.043063637
26	0xbd62b499	-0.055348013
27	0x3e335f46	0.17516813
28	0xbdc0ef29	-0.09420616
29	0xbdd20024	-0.10253933
30	0xbe05c8fb	-0.13064949
31	0x3bd7363d	0.006567745
32	0xbdc9a94a	-0.098467425
33	0xbe8ae0e2	-0.27124697
34	0x3e1b1a84	0.15146834
35	0x3e8a54eb	0.27017912
36	0x3e2f54d1	0.17122199
37	0xbd23f55d	-0.04002892
38	0xbdc3c33a	-0.09558721
39	0xbd47937f	-0.048724648
40	0x3bde237e	0.0067791333
41	0x3e1d8124	0.15381294
42	0xbe4ce99b	-0.20010988
43	0x3dd82ebf	0.10555791
44	0xbdb6243d	-0.08893631
45	0xbe3dedc0	-0.18547726
46	0xbcf53d5c	-0.029936485
47	0xbc98a53a	-0.018633474
48	0x3dab54a8	0.08365756
49	0x3e3a174b	0.18172948
50	0xbdec8039	-0.11547894
51	0xbdacab2a	-0.084310845
52	0x3dc003e2	0.093757406
53	0x3e8add3d	0.27121916
54	0x3d90dcba	0.0707335
55	0xbe2b4eff	-0.16729353
56	0xbdabf76e	-0.08396803
57	0x3d071c85	0.032986183
58	0xbc0f9c16	-0.008765241
59	0xbdebd8ab	-0.115159355
60	0x3ea2b29a	0.31776887
61	0x3d25ef44	0.040511385
62	0xbe527058	-0.20550668
63	0xbe1d4360	-0.15357733
64	0x3dbfc140	0.093630314
65	0x3dc06eed	0.093961574
66	0xbe866163	-0.26246175
67	0xbd942e87	-0.07235437
68	0xbd37554c	-0.04475908
69	0xbda68ab6	-0.08131926
70	0x3e6a38fd	0.22873302
71	0xbd675b82	-0.056483753
72	0xbcde4693	-0.027133262
73	0xbe0a24ec	-0.13490647
74	0xbd55b1d1	-0.052171532
75	0xbe055296	-0.13019785
76	0x3ca15ba7	0.019697024
77	0x3d19c31a	0.03753958
78	0x3cc18f13	0.023627793
79	0x3c00ef2f	0.007869526
80	0x3dc48d5b	0.09597274
81	0xbd0c3d77	-0.034238305
82	0xbde31f86	-0.11089997
83	0x3d0bb155	0.034104664
84	0x3e937ced	0.28806248
85	0x3e101816	0.14071688
86	0x3e681e8d	0.22667904
87	0xbe515d60	-0.20445776
88	0x3ea1bb36	0.31588143
89	0xbd00ef27	-0.031478073
90	0xbd050949	-0.03247956
91	0xbd114d52	-0.03547413
92	0x3d2281d0	0.03967458
93	0x3cd2ded5	0.02574102
94	0x3e018ae0	0.12650633
95	0xbd5374c3	-0.051625025
96	0xbdef871b	-0.11695691
97	0xbd5e8fef	-0.054336485
98	0x3bd49769	0.006487776
99	0x3c9bdf33	0.019027328
100	0x3eae75e9	0.34074333
101	0x3e3274f7	0.17427431
102	0x3dd4eed6	0.10397117
103	0xbd14b5a1	-0.036306027
104	0x3d78bca4	0.060726777
105	0xbe9afa51	-0.302691
106	0x3e26c37e	0.16285512
107	0xbea23535	-0.3168122
108	0x3c32cabc	0.010912593
109	0x3e9faaf9	0.3118513
110	0x3ce57a4c	0.028012417
111	0xbd32ca7b	-0.04365013
112	0x3c60d493	0.013722557
113	0xbdfc1b72	-0.12309922
114	0x3de02587	0.10944658
115	0xbdc6f60b	-0.09714898
116	0x3d5b2464	0.0535015
117	0xbcb80dbe	-0.02246749
118	0x3e17f5d8	0.14839876
119	0xbd84cf15	-0.0648481
120	0x3dc48d05	0.0959721
121	0xbd95ac5f	-0.07308268
122	0x3cbb9614	0.022898711
123	0x3e662e60	0.22478628
124	0x3eb18841	0.34674266
125	0x3d3c5a8a	0.045984782
126	0xbe3eb018	-0.18621862
127	0x3deb637d	0.11493585
128	0x3d9cc608	0.07654959
129	0xbd55b40d	-0.052173663
130	0x3d94c525	0.07264165
131	0x3b16a0a9	0.0022983945
132	0xbe20bef7	-0.15697847
133	0xbe2c5044	-0.16827494
134	0x3d006095	0.031342108
135	0x3d62f5ab	0.05541007
136	0x3d5cdcb4	0.053921416
137	0x3db7d92f	0.08976971
138	0xbec12141	-0.37720683
139	0xbe1b69d8	-0.15177095
140	0xbd66f1ae	-0.056382827
141	0x3d06cb8a	0.032908954
142	0xbcc7c4f5	-0.024385909
143	0xbd835402	-0.064125076
144	0xbd6c6078	-0.057709187
145	0x3e897d97	0.2685363
146	0xbe5946b9	-0.21218385
147	0xbdefeb6d	-0.11714826
148	0xbe9eace8	-0.30991292
149	0xbd83850e	-0.064218625
150	0xbe3b6534	-0.18300325
151	0xbd4ff220	-0.050768018
152	0x3b2fa3eb	0.0026800584
153	0xbc1f8d5e	-0.009738294
154	0x3da7fc77	0.08202451
155	0xbe374bb5	-0.17899974
156	0xbd6bd308	-0.057574302
157	0xbc8cece5	-0.017202804
158	0xbd01562c	-0.03157632
159	0x3d3c8466	0.046024702
160	0xbbc5dc19	-0.0060382006
161	0x3cce2237	0.0251628
162	0xb8fbc64f	-0.000120055505
163	0x3d96421d	0.07336829
164	0xbdf0f33a	-0.11765142
165	0x3c875a8f	0.016522674
166	0xbd075432	-0.03303928
167	0xbe49d2ed	-0.19709368
168	0xbe1d0f16	-0.15337786
169	0xbd6f1945	-0.05837371
170	0x3d852bc6	0.0650249
171	0x3d6868a6	0.056740426
172	0xbe3db9d7	-0.18527924
173	0x3c958c43	0.018255359
174	0xbdb150d2	-0.086579934
175	0x3e1ba304	0.15198904
176	0xbe1151b4	-0.14191324
177	0x3e2e6c61	0.17033531
178	0x3c38b650	0.011273935
179	0xbd8721c5	-0.06598238
180	0xbd325f03	-0.04354764
181	0xbda98cfb	-0.08278843
182	0xbde0e107	-0.109804206
183	0x3c6d4cd8	0.014483653
184	0xbe180c6e	-0.14848492
185	0xbe1716e6	-0.14754829
186	0x3da3403d	0.07971237
187	0x3dc50128	0.09619361
188	0xbdf6c732	-0.12049712
189	0xbdca959b	-0.09891816
190	0x3d938125	0.07202367
191	0x3ebd5527	0.3697903
192	0x3d49f843	0.049309026
193	0xbdf2b1fb	-0.11850353
194	0x3c63ba19	0.01389935
195	0x3bf3d95e	0.0074416837
196	0xbbaf2d70	-0.0053459927
197	0x3e045295	0.12922128
198	0xbdeb7e11	-0.11498655
199	0x3d51a495	0.05118235
200	0x3c5b5c8f	0.013388767
201	0x3e33a0ca	0.17541805
202	0x3e32157e	0.17391011
203	0x3e1a3000	0.15057373
204	0xbc3cc8f4	-0.01152252
205	0xbe3fff14	-0.18749648
206	0x3cc019de	0.023449834
207	0x3e31a5e9	0.17348446
208	0xbd7b9bc9	-0.061427865
209	0x3dddca35	0.108295836
210	0xbd1cb429	-0.03825775
211	0x3cdcfe5c	0.026976757
212	0xbd6ca07a	-0.05777023
213	0xbd1f8858	-0.038948387
214	0xbd00597b	-0.031335335
215	0xbca389ac	-0.019963108
216	0x3e1e7682	0.15474895
217	0x3d802be7	0.06258374
218	0xbdf9af46	-0.12191634
219	0x3e3888af	0.1802089
220	0xbbc557ed	-0.0060224445
221	0x3ac92f2a	0.0015349139
222	0x3e6be5d2	0.23036888
223	0x3ea7ff42	0.32811934
224	0xbccce795	-0.02501277
225	0x3d6d6f9d	0.05796777
226	0xbd9e5dd4	-0.0773274
227	0xbd7a2375	-0.06106897
228	0x3e6b7a4d	0.22995873
229	0xbdd897cf	-0.1057583
230	0x3e29ae17	0.16570316
231	0x3e460f45	0.19341762
232	0x3d43886f	0.047737535
233	0x3d73dedf	0.05953872
234	0x3e235e5f	0.15953968
235	0xbe4eb1f2	-0.20185068
236	0x3dbb9801	0.09159852
237	0x3d0e9db4	0.034818366
238	0x3ac52338	0.0015040403
239	0xbd38b1a7	-0.045091297
240	0xbdb3a48d	-0.0877162
241	0x3daabc9e	0.08336757
242	0x3df4b95b	0.11949416
243	0xbe3240a3	-0.1740747
244	0x3dc2e3ff	0.09516143
245	0x3df170fa	0.11789127
246	0x3d4e6495	0.05038889
247	0x3db83ad8	0.089955986
248	0x3c8aa0a8	0.01692231
249	0x3dd11fc2	0.102111354
250	0x3c2bb3b1	0.0104798535
251	0x3cd2d99f	0.025738535
252	0xbde41b44	-0.11138013
253	0xbe4fb3e3	-0.20283465
254	0xbd79f687	-0.061026122
255	0xbdc6842d	-0.09693179

fc3.bias f4 [10]
0	0xbe5f985d	-0.21835466
1	0xbf0a0d4b	-0.53926533
2	0x3da242f9	0.0792293
3	0x3ea07a8f	0.31343505
4	0x3f014d8c	0.5050895
5	0xbe133dce	-0.14379045
6	0xbd5b3522	-0.05351747
7	0xbe737468	-0.23774874
8	0x3f05b3e6	0.5222763
9	0xbe3eacf5	-0.18620665
