cifar_net.pth (torch, 251604 bytes, 10 tensors)

conv1.weight f4 [6, 3, 5, 5]
-0.15788764 -0.24771015 -0.19986522 -0.18730663 -0.03700917 -0.23452184 -0.18105473 -0.2881302
-0.11056205 -0.15111092 -0.27363357 -0.17456041 -0.25126374 -0.15926366 -0.17130119 -0.080105074
-0.12198645 -0.2119484 -0.08358925 -0.17275347 -0.060146786 -0.10417272 -0.113004036 -0.037427463
-0.20589729 -0.0031830587 0.04236099 0.06651418 0.07403218 -0.0731458 0.0023100628 -0.019357229
0.000381989 -0.0076727136 -0.028050242 0.03491762 -0.067559324 -0.02597898 0.06708026 0.035808634
0.047775637 -0.022606116 0.027257787 -0.021394817 0.041685965 -0.017996052 0.10535868 -0.011454179
-0.08317347 0.0085719 0.17974506 0.3071326 0.22158343 0.17787634 0.16509274 0.23569423
0.23646575 0.37302184 0.21783502 0.17865068 0.17172359 0.28173167 0.2859787 0.14441493
0.17537457 0.092314936 0.24013877 0.23236078 0.10398659 0.058241703 0.02915007 0.055487543
0.1966124 0.026917046 0.03966751 0.09511323 0.287542 0.20482695 0.24652955 0.13982286
-0.1475528 -0.1302978 -0.19982363 -0.28308895 -0.1794246 -0.27628857 -0.46601573 -0.63454866
-0.5525937 -0.43837577 -0.06710172 0.038299736 0.03662988 0.05528354 0.03261162 0.1350404
0.27520016 0.25680575 0.35416383 0.2008763 0.13202387 0.4511047 0.29761255 0.23351046
0.22717352 -0.048107423 -0.04257574 -0.12718743 -0.10259142 -0.13069457 -0.338285 -0.40525576
-0.42168343 -0.28417438 -0.24887379 0.070674405 0.18549973 0.1805688 0.08838588 0.13867615
-0.064737655 0.19125609 0.2209577 0.13079375 0.03882724 -0.08734524 0.30545712 0.28017074
0.36161906 0.2402239 0.022397675 0.048424896 0.15556642 0.17032635 0.11907055 -0.09653915
-0.31908026 -0.29762572 -0.18271251 -0.1646647 -0.058227085 0.11905992 0.091994524 0.09357639
0.113339625 -0.1718956 -0.077187754 -0.19275042 -0.09169086 -0.11361012 0.010069233 -0.0306279
-0.055101443 -0.01885262 -0.08355229 -0.037880912 -0.109314725 0.045146033 -0.129551 0.041247368
-0.17924586 -0.083698116 -0.14292772 0.097363845 0.13153514 0.23560193 -0.2643332 -0.6900609
0.23978284 0.41056654 0.15936589 0.012490382 -0.57388693 -0.43972787 0.27560022 -0.08316437
0.09885134 0.04681584 0.20622516 0.0026018159 -0.112322815 0.12619935 0.1269908 0.09855686
0.14228469 0.007244363 -0.0675978 -0.11094259 0.103956975 0.28719825 0.23809488 -0.023994062
-0.5275427 0.22876532 0.663897 0.35512543 0.24942397 -0.37826645 -0.12555306 0.43213165
-0.011915656 -0.09654562 -0.077198274 -0.15854232 -0.20282176 -0.14720343 0.057653915 0.105746545
-0.14925653 -0.026392588 -0.0867124 -0.037048534 -0.11727949 -0.031008676 0.04082309 0.23221019
-0.10558789 -0.46459904 0.14860855 0.40183753 0.23394884 0.03893134 -0.5014667 -0.23325498
0.2660473 0.44406167 0.37385052 0.33429345 0.47292286 0.25221604 -0.0064639198 0.12212095
0.10554881 0.12219844 0.088726155 -0.19396076 -0.1318073 0.115340695 -0.014353572 0.103435196
-0.19318734 -0.295395 -0.033570025 -0.14199917 -0.07652116 -0.17070535 -0.41784662 -0.27618626
-0.25431132 -0.25767505 -0.35709274 -0.42189848 -0.40439773 -0.22371566 -0.3091344 -0.4135231
00000000: 4cad 21be bba7 7dbe 78a9 4cbe 4fcd 3fbe
00000010: ed96 17bd 7e26 70be 6966 39be cd85 93be
00000020: 5b6e e2bd d2bc 1abe b319 8cbe f7bf 32be
00000030: a4a5 80be 0316 23be 9469 2fbe 210e a4bd
00000040: 08d4 f9bd 0009 59be d730 abbd 49e6 30be
00000050: 7a5c 76bd 8258 d5bd a96e e7bd 8a4d 19bd
00000060: bdd6 52be dd9a 50bb b882 2d3d 9638 883d
00000070: 2f9e 973d 77cd 95bd 6c64 173b 0d93 9ebc
00000080: b245 c839 636b fbbb 9fc9 e5bc c705 0f3d
00000090: 8b5c 8abd dfd1 d4bc 6061 893d 13ac 123d
000000a0: 63b0 433d 7630 b9bc b94b df3c 2f44 afbc
000000b0: e7be 2a3d 756c 93bc 4bc6 d73d 4faa 3bbc
000000c0: da56 aabd 2871 0c3c 170f 383e 7c40 9d3e
000000d0: c4e6 623e 3725 363e 120e 293e d459 713e
000000e0: 1424 723e b8fc be3e 2510 5f3e 34f0 363e
000000f0: 4fd8 2f3e 223f 903e cd6b 923e 82e1 133e
00000100: 6495 333e 9d0f bd3d f0e6 753e fcef 6d3e
00000110: ecf6 d43d da8e 6e3d 21cc ee3c e846 633d
00000120: c354 493e 2381 dc3c 667a 223d baca c23d
00000130: b438 933e 28be 513e 3e72 7c3e b92d 0f3e
00000140: 1518 17be c96c 05be 919e 4cbe 09f1 90be
00000150: 15bb 37be b275 8dbe 9d99 eebe c871 22bf
00000160: c876 0dbf ca72 e0be a06c 89bd 2fe0 1c3d
00000170: 3709 163d fe70 623d c393 053d 0848 0a3e
00000180: 09e7 8c3e 0b7c 833e f654 b53e 84b2 4d3e
00000190: 4431 073e 32f7 e63e ac60 983e 5e1d 6f3e
000001a0: 2da0 683e 4a0c 45bd e663 2ebd 6c3d 02be
000001b0: 731b d2bd ccd4 05be b133 adbe af7d cfbe
000001c0: e4e6 d7be 4e7f 91be c5d8 7ebe bebd 903d
000001d0: a4f3 3d3e 07e7 383e a803 b53d 1f01 0e3e
000001e0: 2d95 84bd a3d8 433e bc42 623e ccee 053e
000001f0: 5009 1f3d 10e2 b2bd e064 9c3e 8a72 8f3e
00000200: 2226 b93e 41fd 753e 547b b73c 2f59 463d
00000210: ce4c 1f3e 086a 2e3e 43db f33d 51b6 c5bd
00000220: 7d5e a3be 6662 98be fd18 3bbe dd9d 28be
00000230: 867f 6ebd b0d5 f33d a067 bc3d faa4 bf3d
00000240: 9b1e e83d 6605 30be 9d14 9ebd 5e60 45be
00000250: 6bc8 bbbd 6cac e8bd 6df9 243c 5de7 fabc
00000260: 0db2 61bd cf70 9abc 771d abbd 0429 1bbd
00000270: 66e0 dfbd 0ceb 383d 04a9 04be 00f3 283d
00000280: 3a8c 37be eb69 abbd a55b 12be b266 c73d
00000290: 26b1 063e a241 713e ae56 87be d5a7 30bf
000002a0: a289 753e c735 d23e d030 233e 76a4 4c3c
000002b0: 41ea 12bf 0324 e1be 791b 8d3e 1552 aabd
000002c0: 9272 ca3d f7c1 3f3d b02c 533e 3a83 2a3b
000002d0: 8109 e6bd 673a 013e e009 023e 2ed8 c93d
000002e0: 14b3 113e 1f62 ed3b b770 8abd de35 e3bd
000002f0: 65e7 d43d a60b 933e 25cf 733e 328f c4bc
00000300: 0a0d 07bf 7541 6a3e 27f5 293f 00d3 b53e
00000310: ff68 7f3e 24ac c1be fb90 00be 5c40 dd3e
00000320: e239 43bc b6b9 c5bd 211a 9ebd eb58 22be
00000330: 82b0 4fbe 7fbc 16be 8326 6c3d a591 d83d
00000340: b4d6 18be 4535 d8bc 4596 b1bd 34c0 17bd
00000350: 3b30 f0bd e805 febc 1d36 273d 82c8 6d3e
00000360: 773e d8bd eddf edbe d72c 183e a6bd cd3e
00000370: 4990 6f3e 7876 1f3d 1f60 00bf 65da 6ebe
00000380: 5a37 883e 0d5c e33e 5669 bf3e 8328 ab3e
00000390: f222 f23e 7622 813e 4acf d3bb 8c1a fa3d
000003a0: f929 d83d 2d43 fa3d 0fb6 b53d a69d 46be
000003b0: 7ef8 06be be37 ec3d 3f2b 6bbc d5d5 d33d
000003c0: e7d2 45be 033e 97be b980 09bd 3b68 11be
000003d0: 20b7 9cbd 62cd 2ebe feef d5be 4968 8dbe
000003e0: 1835 82be fced 83be dcd4 b6be 1403 d8be
000003f0: 380d cfbe b815 65be dd46 9ebe 4db9 d3be

conv1.bias f4 [6]
0.47657198 -0.39263326 0.027475022 -0.014447824 -0.25906995 -0.16917662
00000000: 3e01 f43e 3a07 c9be 4c13 e13c 91b6 6cbc
00000010: d1a4 84be a33c 2dbe

conv2.weight f4 [16, 6, 5, 5]
-0.0939609 -0.113640465 -0.0768511 -0.054282904 -0.09049256 -0.13446969 -0.15270327 -0.056181744
0.0684034 -0.013485851 -0.06598505 -0.013749759 0.039010625 0.08064715 0.07404235 -0.10213898
-0.014932806 0.04406675 0.008981834 -0.03816325 0.044526856 -0.03577704 0.058427826 -0.058352463
-0.06526347 0.009196017 0.0071281367 -0.019928297 -0.07560846 -0.11273476 0.07169437 -0.12383368
-0.17847411 -0.14369963 -0.13038437 -0.08312638 -0.13511387 -0.18986852 -0.17614461 -0.06048936
-0.056627046 -0.21817692 -0.1716577 -0.14462818 -0.10254171 -0.10277495 -0.12102764 -0.14424469
-0.16420864 -0.047737684 0.032888304 0.122260004 0.08706582 0.037407566 -0.013469056 0.06351934
0.13655266 -0.041972086 -0.027558804 -0.1482171 0.024498628 -0.067354046 -0.11233963 -0.087099634
-0.06409433 -0.047176894 -0.066486314 -0.16012515 0.0058857594 -0.13934506 -0.018885124 -0.023902044
-0.034666203 -0.08555416 -0.16585195 0.0840753 0.13453583 0.046667483 0.014805732 -0.13855997
0.16868944 0.13450895 0.064116746 -0.099000864 -0.12165301 0.15843865 0.14715183 0.04106342
-0.040731598 -0.067881495 0.051489007 0.08404562 -0.029576404 -0.13648337 -0.19841826 0.08452082
-0.00045209995 -0.1560539 -0.18957128 -0.24064031 -0.07474411 0.113109276 0.24862987 0.10359728
0.020260666 0.09102935 0.044902045 -0.01354291 -0.08949917 -0.23382154 0.111900836 -0.062103495
-0.08616292 -0.09263285 -0.16536364 -0.003038259 0.022461874 -0.13738419 -0.05381143 -0.13081099
0.081795774 0.046470817 -0.023843566 -0.059139572 0.02110622 -0.021446358 0.12619342 0.0893182
0.19828336 0.12306239 0.0016096069 0.24649587 0.21123895 0.13527212 0.02681613 0.17075899
0.07309722 0.08173337 0.10065586 -0.06267669 0.11507528 -0.04626709 -0.093505956 0.01925265
-0.008784667 0.016821528 0.04049582 0.10978434 0.06401314 0.008671481 0.21892962 0.100318454
0.14524834 0.15956385 0.19507058 0.059640553 -0.07032218 -0.06730463 0.056894045 0.012823368
-0.13332453 0.004346845 -0.018239219 -0.07063102 -0.07750832 0.050514195 0.047821533 0.09193995
0.010765876 -0.11815856 -0.03832577 0.026132196 -0.11534183 -0.08702731 -0.030871501 0.083761655
0.039834592 0.04921413 -0.040144246 0.15130597 0.16768384 0.212598 0.075850956 0.13465126
0.048815317 0.2659917 0.3071942 0.13415846 0.043720096 0.16740513 -0.021669898 -0.10147798
-0.05779369 0.060151525 -0.09482327 0.10339595 0.046104096 0.11261632 0.08270264 0.088236846
-0.16185744 -0.29611945 -0.17517667 -0.034297656 -0.12188179 -0.03672122 -0.08716349 -0.08768943
-0.103980325 -0.011932889 0.08877977 -0.019678282 -0.07984587 -0.030552318 -0.035466883 0.09487195
-0.05851146 -0.06371111 0.098543294 0.04189878 0.013962351 0.029135678 0.0033914032 0.13100958
0.004369777 0.005757148 0.0940515 -0.029578391 0.04324823 -0.022579825 0.06477857 0.024068387
-0.041205753 -0.1787275 -0.13461013 -0.09718809 -0.21689528 -0.14714174 -0.18739723 -0.19687964
0.07996927 -0.102259815 0.013109321 -0.0011574649 -0.0020627398 0.13406573 0.080524616 -0.032818437
0.003114472 -0.0064618783 -0.06288098 -0.0646525 -0.03287632 -0.076389335 0.035453513 0.23584786
00000000: 936e c0bd 55bc e8bd 1c64 9dbd c057 5ebd
00000010: 2a54 b9bd 6cb2 09be 3f5e 1cbe d41e 66bd
00000020: 1517 8c3d c2f3 5cbc 2b23 87bd ab46 61bc
00000030: 9bc9 1f3d 552a a53d 84a3 973d 3e2e d1bd
00000040: baa8 74bc 567f 343d 8b28 133c 1151 1cbd
00000050: cb61 363d f28a 12bd 0452 6f3d fe02 6fbd
00000060: dba8 85bd e4aa 163c 2593 e93b ab40 a3bc
00000070: 9cd8 9abd 7be1 e6bd 7fd4 923d 839c fdbd
00000080: ebc1 36be ff25 13be 7b83 05be 2a3e aabd
00000090: 4a5b 0abe e56c 42be 415f 34be b1c3 77bd
000000a0: c3f1 67bd c569 5fbe 09c7 2fbe 6919 14be
000000b0: 6301 d2bd ac7b d2bd 57dd f7bd e1b4 13be
000000c0: 4f26 28be 9788 43bd e3b5 063d 7463 fa3d
000000d0: 914f b23d ad38 193d 51ad 5cbc 6d16 823d
000000e0: 76d4 0b3e ecea 2bbd 00c3 e1bc 39c6 17be
000000f0: 59b1 c83c ebf0 89bd 5212 e6bd 4b61 b2bd
00000100: e343 83bd 8f3c 41bd fa29 88bd d9f7 23be
00000110: 54dd c03b 79b0 0ebe fab4 9abc 38ce c3bc
00000120: 26fe 0dbd 0537 afbd 18d5 29be ac2f ac3d
00000130: c3c3 093e 6726 3f3d be93 723c aae2 0dbe
00000140: edbc 2c3e b7bc 093e a44f 833d f7c0 cabd
00000150: 3725 f9bd be3d 223e f8ae 163e 1e32 283d
00000160: 2dd6 26bd 7405 8bbd 23e6 523d 1c20 ac3d
00000170: 374a f2bc 4cc2 0bbe 282e 4bbe 4019 ad3d
00000180: d407 edb9 98cc 1fbe f91e 42be 6a6a 76be
00000190: 7113 99bd d6a5 e73d d498 7e3e d02a d43d
000001a0: b2f9 a53c 996d ba3d 35eb 373d 15e3 5dbc
000001b0: 574b b7bd ea6e 6fbe 442c e53d 3c60 7ebd
000001c0: 2f76 b0bd 4bb6 bdbd 1655 29be 871d 47bb
000001d0: f701 b83c 71ae 0cbe 6069 5cbd 51f3 05be
000001e0: 8b84 a73d 2f58 3e3d 9553 c3bc 563c 72bd
000001f0: f4e6 ac3c 46b0 afbc d938 013e 76ec b63d
00000200: cb0a 4b3e 2208 fc3d 72f9 d23a 6a69 7c3e
00000210: 064f 583e c684 0a3e 80ad db3c 72db 2e3e
00000220: ffb3 953d d363 a73d a924 ce3d a35c 80bd
00000230: 97ac eb3d 8f82 3dbd 0d80 bfbd bcb7 9d3c
00000240: 90ed 0fbc 4dcd 893c f2de 253d 9dd6 e03d
00000250: 5219 833d d412 0e3c 162f 603e c373 cd3d
00000260: fbbb 143e b564 233e 95c0 473e a749 743d
00000270: 1305 90bd 03d7 89bd bb09 693d 1b19 523c
00000280: 3a86 08be fb6f 8e3b 6a6a 95bc ffa6 90bd
00000290: afbc 9ebd f9e7 4e3d 83e0 433d 034b bc3d
000002a0: 5b63 303c 1dfd f1bd 7cfb 1cbd 3013 d63c
000002b0: 5638 ecbd 603b b2bd 3be6 fcbc 3b8b ab3d
000002c0: 9929 233d c194 493d 4b6e 24bd f4ef 1a3e
000002d0: 50b5 2b3e 4ab3 593e bf57 9b3d 05e2 093e
000002e0: 92f2 473d 1030 883e 8f48 9d3e d660 093e
000002f0: d813 333d 406c 2b3e 1285 b1bc b0d3 cfbd
00000300: 14b9 6cbd 7261 763d b432 c2bd 41c1 d33d
00000310: a6d7 3c3d 63a3 e63d 0060 a93d 85b5 b43d
00000320: f5bd 25be f89c 97be 8361 33be b37b 0cbd
00000330: 299d f9bd fd68 16bd c682 b2bd 8496 b3bd
00000340: a3f3 d4bd 2a82 43bc 2bd2 b53d 5934 a1bc
00000350: 3b86 a3bd db48 fabc b945 11bd 3a4c c23d
00000360: b6a9 6fbd f87a 82bd 11d1 c93d 0e9e 2b3d
00000370: 58c2 643c f2ad ee3c 4e42 5e3b 6027 063e
00000380: 5930 8f3b 75a6 bc3b 139e c03d 624e f2bc
00000390: 0e25 313d 53f9 b8bc a0aa 843d 112b c53c
000003a0: 5dc7 28bd 5704 37be 3dd7 09be 8d0a c7bd
000003b0: cc19 5ebe 53ac 16be 0fe5 3fbe d19a 49be
000003c0: eec6 a33d 986d d1bd 7ac8 563c 14b6 97ba
000003d0: 082f 07bb 8748 093e 17ea a43d a06c 06bd
000003e0: 2b1c 4c3b 2abe d3bb bec7 80bd 8868 84bd
000003f0: 52a9 06bd 0372 9cbd b437 113d 1a82 713e

conv2.bias f4 [16]
0.21322523 -0.11318238 -0.13576943 0.067902766 0.10034199 0.139689 -0.29850906 -0.452158
-0.19188002 -0.19002111 1.0162671 0.2763665 0.55596113 -0.23139219 0.812118 -0.2699837
00000000: b757 5a3e 2acc e7bd 2407 0bbe 9b10 8b3d
00000010: 1a80 cd3d a20a 0f3e 2ed6 98be 4181 e7be
00000020: 327c 44be e594 42be 0a15 823f e97f 8d3e
00000030: 7853 0e3f 13f2 6cbe f7e6 4f3f 4e3b 8abe

fc1.weight f4 [120, 400]
-0.059001405 -0.0077629234 -0.028859224 -0.025636347 0.06629787 0.013683605 -0.020688953 0.01638817
0.04817815 0.055256225 -0.03184429 -0.00016234715 -0.028936261 -0.031058716 0.0051480313 -0.013005051
0.013801877 -0.04349366 -0.004123894 0.06844033 0.0016938499 0.063439414 -0.016570276 -0.0050834706
0.053635612 -0.07127178 -0.036132194 -0.06206743 -0.007959749 -0.0548908 -0.041341454 -0.038654163
-0.052790802 -0.03547662 0.017655062 0.043309197 -0.03899996 0.028365813 -0.033664636 -0.05667604
0.07130475 0.062209163 0.016344616 0.03757579 0.0070135775 0.005824681 0.057689294 0.021877581
0.001606776 -0.014676 -0.063369185 -0.00061309425 -0.017879365 -0.0056823697 -0.003544984 -0.067414954
0.009410975 -0.03762326 -0.027618036 0.016053142 0.006375288 0.035577912 -0.018043684 0.028762884
-0.055072274 0.02478289 0.04573477 -0.013641546 -0.017903652 0.0043435246 0.056177236 0.06914573
0.023488142 0.054162923 -0.010260026 -0.03947822 0.016785609 0.04292241 0.0651001 0.08186406
-0.060344152 -0.035735097 -0.026288476 0.027116738 0.07292846 0.007378874 -0.008138577 -0.07910783
-0.047418524 0.05200436 -0.024524981 -0.06572454 -0.057444386 -0.048491217 0.03861507 0.0082812905
-0.06309422 -0.012539369 -0.036635965 0.007951426 -0.034028247 -0.009729264 0.049343627 0.0024239141
0.04465174 -0.015560879 -0.01643372 0.064000405 0.029281879 0.032257877 -0.0359012 -0.0125993695
-0.00070848054 0.010084194 0.027589383 0.054459386 0.01601915 0.01475578 0.011976265 0.055646293
0.057233088 0.008393173 -0.030753907 -0.020729853 -0.025295762 -0.019920994 -0.022193134 -0.048677184
0.008259446 -2.430476e-05 0.0100239515 -0.0737331 -0.05733135 -0.00021240448 -0.022964612 -0.05528882
-0.018914338 -0.015470766 0.017878972 -0.024858316 -0.05088332 0.025256885 -0.0019857967 0.0042944252
0.006287433 -0.027987652 0.0208003 -0.010832982 0.0062160525 -0.071193494 -0.06644478 0.016334387
-0.06304733 -0.025900234 -0.03977182 -0.0004171654 -0.031925872 -0.025224077 -0.04823978 -0.053476226
-0.012751446 0.030954039 0.007026773 -0.021271612 -0.07556911 -0.00571636 0.03171663 0.008285198
-0.009750248 -0.0063250097 -0.030562479 -0.059801415 -0.08678392 -0.014903582 -0.065899216 -0.031917185
-0.06311508 0.023284478 0.045348242 -0.014474951 -0.06105165 -0.066975825 0.019025033 0.0013726829
0.028518759 -0.05107097 -0.046362046 -0.050094485 0.021801608 0.040698253 0.018981015 0.049284395
0.005988826 -0.02316531 0.023366408 0.05523899 0.07834709 -0.04800068 0.010239368 0.012244104
-0.016145002 0.04140034 0.00829565 0.07310742 0.06889228 -0.040619496 0.050471026 0.00017767856
-0.011834148 0.04693024 0.03592182 -0.021235405 0.009552558 0.031166803 0.05832802 0.008728727
0.039065484 -0.0645134 -0.008557752 0.031878393 0.0711288 0.047253467 -0.041596763 0.0045314403
0.026227504 0.025733957 0.020423658 -0.016200168 0.018395642 -0.020587355 -0.036152963 -0.03255065
0.018069772 -0.042502582 -0.0075289453 0.021609016 -0.046104006 -0.061245523 -0.030274654 -0.003993645
-0.021238772 -0.044009723 0.018810935 -0.009135718 -0.040623493 -0.0058250977 0.05166462 -0.0008483615
0.039090496 -0.009707859 0.018958295 0.009044448 -0.019712558 0.050426356 0.050886136 0.017713737
00000000: 75ab 71bd 1f60 febb 2e6a ecbc 5103 d2bc
00000010: 2dc7 873d 3331 603c e17b a9bc 7c40 863c
00000020: 7456 453d 5a54 623d 296f 02bd bb3b 2ab9
00000030: bd0b edbc d96e febc d1b0 a83b 2313 55bc
00000040: 4521 623c 6826 32bd bb21 87bb 722a 8c3d
00000050: 2c04 de3a 86ec 813d 63be 87bc 3e93 a6bb
00000060: 04b1 5b3d f0f6 91bd 5aff 13bd 6b3a 7ebd
00000070: 9b69 02bc 2dd5 60bd a855 29bd d453 1ebd
00000080: 2b3b 58bd ef4f 11bd 59a1 903c fc64 313d
00000090: 6cbe 1fbd 6c5f e83c eee3 09bd 2325 68bd
000000a0: 3a08 923d 09cf 7e3d 25e5 853c 12e9 193d
000000b0: 27d2 e53b f7dc be3b 9c4b 6c3d 9d38 b33c
000000c0: 759a d23a 9b73 70bc b4c7 81bd 0fb8 20ba
000000d0: bf77 92bc 2c33 babb f652 68bb da10 8abd
000000e0: 7d30 1a3c d91a 1abd 383f e2bc e181 833c
000000f0: cbe7 d03b 25ba 113d 59d0 93bc 24a0 eb3c
00000100: 7793 61bd 7d05 cb3c 6254 3b3d ca80 5fbc
00000110: aeaa 92bc 2054 8e3b 1a1a 663d 479c 8d3d
00000120: 346a c03c f1d9 5d3d ab19 28bc eab3 21bd
00000130: f981 893c 69cf 2f3d 3453 853d 58a8 a73d
00000140: 6e2b 77bd f75e 12bd ee5a d7bc ec23 de3c
00000150: 845b 953d 7bca f13b ab57 05bc 4903 a2bd
00000160: ed39 42bd 8602 553d 9de8 c8bc 969a 86bd
00000170: ce4a 6bbd ba9e 46bd d62a 1e3d 40ae 073c
00000180: 8b37 81bd ed71 4dbc 980f 16bd b346 023c
00000190: 3461 0bbd 7e67 1fbc 8b1c 4a3d 88da 1e3b
000001a0: bee4 363d 0ff3 7ebc 02a0 86bc a512 833d
000001b0: 8de0 ef3c d620 043d 230d 13bd 966d 4ebc
000001c0: 53b9 39ba 2d38 253c 2103 e23c ce10 5f3d
000001d0: 983a 833c 3ac2 713c 1938 443c 5eed 633d
000001e0: 3e6d 6a3d 8583 093c 9eef fbbc a7d1 a9bc
000001f0: 0f39 cfbc 5a31 a3bc 60ce b5bc ba61 47bd
00000200: a152 073c 13e2 cbb7 803b 243c 6101 97bd
00000210: 47d4 6abd e5b8 5eb9 4820 bcbc 8876 62bd
00000220: 3ef2 9abc 1979 7dbc ec76 923c aba3 cbbc
00000230: 076b 50bd 87e7 ce3c 2424 02bb 40b8 8c3b
00000240: d006 ce3b 5c46 e5bc 6465 aa3c d27c 31bc
00000250: 07b0 cb3b e5cd 91bd 3314 88bd b1cf 853c
00000260: f51e 81bd ba2c d4bc c7e7 22bd feb6 dab9
00000270: b4c4 02bd b9a2 cebc 1397 45bd e309 5bbd
00000280: 71eb 50bc 5393 fd3c d840 e63b ce41 aebc
00000290: fac3 9abd 4e50 bbbb 4ce9 013d a4be 073c
000002a0: 81bf 1fbc 0742 cfbb 2a5e fabc 54f2 74bd
000002b0: c5bb b1bd 272e 74bc 2bf6 86bd 98bb 02bd
000002c0: 7b42 81bd 17bf be3c 14bf 393d 5828 6dbc
000002d0: 4c11 7abd 9f2a 89bd 63da 9b3c 98eb b33a
000002e0: 2ca0 e93c cb2f 51bd 21e6 3dbd e02f 4dbd
000002f0: 4999 b23c 36b3 263d 137e 9b3c 6fde 493d
00000300: ea3d c43b 2dc5 bdbc e96a bf3c 4742 623d
00000310: 7074 a03d 5c9c 44bd 06c3 273c 7f9b 483c
00000320: 8642 84bc 6793 293d 7aea 073c 58b9 953d
00000330: 6517 8d3d a160 26bd b5ba 4e3d 3a4f 3a39
00000340: 04e4 41bc ec39 403d c222 133d dff5 adbc
00000350: 5582 1c3c 8651 ff3c 5de9 6e3d ef02 0f3c
00000360: 2103 203d 9a1f 84bd d035 0cbc eb92 023d
00000370: faab 913d da8c 413d 5e61 2abd 7a7c 943b
00000380: 10db d63c 05d0 d23c 844f a73c 37b6 84bc
00000390: 75b2 963c d0a6 a8bc 2115 14bd d553 05bd
000003a0: 0f07 943c 3017 2ebd 5fb5 f6bb 6405 b13c
000003b0: 8ed7 3cbd 96dc 7abd 8d02 f8bc 1fdd 82bb
000003c0: effc adbc 8a43 34bd 6419 9a3c fbad 15bc
000003d0: d264 26bd 76e0 bebb 489e 533d 9464 5eba
000003e0: 5b1d 203d b60d 1fbc 6d4e 9b3c 2a2f 143c
000003f0: 3b7c a1bc de8b 4e3d fb6d 503d 661c 913c

fc1.bias f4 [120]
-0.0058329534 -0.037340052 -0.038211297 0.10579978 0.07098075 -0.002179118 -0.029757336 0.09427399
0.017941307 0.09614752 0.12694392 -0.029781206 0.0016008714 -0.0394391 0.060678974 0.1114825
0.03456031 0.015512619 -0.05326561 0.14092596 0.12841997 0.027428612 0.01183235 0.08969901
-0.022303345 0.05611686 -0.037800644 0.007023773 0.10902429 0.011125336 0.121385634 -0.0638988
-0.020457564 -0.10146399 -0.027195947 0.055410583 -0.00567906 0.017902566 -0.02259486 -0.05118217
0.011066611 0.041112214 0.08994239 0.025275202 0.007622302 0.0122939255 0.10071537 0.09516016
-0.049428266 0.016149418 -0.021628808 0.11508659 -0.04034956 -0.0040586507 0.1552318 -0.037189823
-0.24196127 -0.06109947 0.0041856254 -0.013696064 -0.002595622 0.13284987 0.04524711 -0.0016461548
-0.06695973 -0.049214225 0.07139588 -0.024892675 0.042816743 0.0012187993 -0.1911732 0.039593115
0.045263957 0.0148906605 0.06972696 0.0143439425 0.1447591 0.0010509678 0.030256541 -0.02835554
0.12282062 -0.03392721 0.12662342 0.043259677 0.07993116 0.012275329 0.04952733 0.012719581
-0.011372061 0.075297154 -0.1471575 -0.008997597 -0.018581579 -0.023855915 -0.07667633 0.06962401
-0.016801624 -0.04828303 0.05088556 -0.09784165 0.097982794 0.009437172 0.041800547 -0.014270346
0.22280611 -0.0251222 -0.01254896 0.1348735 0.1889725 -0.00027217786 0.11518048 0.073942795
-0.07800324 -0.009120769 0.07054233 0.15079369 0.17159243 -0.28999215 0.006559495 0.094759986
00000000: 5c22 bfbb e2f1 18bd 7383 1cbd 8ead d83d
00000010: 5b5e 913d 89cf 0ebb a8c5 f3bc b912 c13d
00000020: a6f9 923c fee8 c43d 96fd 013e b7f7 f3bc
00000030: 55d4 d13a e58a 21bd 848a 783d f050 e43d
00000040: 1d8f 0d3d a428 7e3c 0a2d 5abd e54e 103e
00000050: 8680 033e f8b1 e03c 79dc 413c 1db4 b73d
00000060: 81b5 b6bc cbda 653d d9d4 1abd ae27 e63b
00000070: 2148 df3d 0b47 363c 0899 f83d 60dd 82bd
00000080: 9f96 a7bc 5acc cfbd 09ca debc 35f6 623d
00000090: 6817 babb 67a8 923c db18 b9bc 65a4 51bd
000000a0: bb50 353c 4865 283d b733 b83d f10d cf3c
000000b0: 81c4 f93b 766c 493c dc43 ce3d 54e3 c23d
000000c0: 4b75 4abd c94b 843c e62e b1bc 85b2 eb3d
000000d0: 9545 25bd 6efe 84bb 16f5 1e3e 5b54 18bd
000000e0: b2c4 77be 7043 7abd 9227 893b 7565 60bc
000000f0: 501b 2abb cc09 083e 0955 393d cac3 d7ba
00000100: 2f22 89bd db94 49bd 0138 923d b9eb cbbc
00000110: 9c60 2f3d 1ec0 9f3a e8c2 43be 642c 223d
00000120: b366 393d f5f7 733c 02cd 8e3d db02 6b3c
00000130: bb3b 143e a1c0 893a 91dc f73c e149 e8bc
00000140: 6189 fb3d 42f7 0abd 92a9 013e 0f31 313d
00000150: f3b2 a33d 761e 493c 2bdd 4a3d ca65 503c
00000160: e251 3abc 6535 9a3d 75b0 16be a86a 13bc
00000170: 6538 98bc 7b6d c3bc 7b08 9dbd 0897 8e3d
00000180: 8fa3 89bc 6dc4 45bd 616d 503d 3461 c8bd
00000190: 34ab c83d 5e9e 1a3c 0d37 2b3d 2bce 69bc
000001a0: 4927 643e 12cd cdbc 279a 4dbc 471c 0a3e
000001b0: 0282 413e 18b3 8eb9 bee3 eb3d 526f 973d
000001c0: 2ac0 9fbd 476f 15bc 7f78 903d a969 1a3e
000001d0: edb5 2f3e da79 94be 08f1 d63b 8611 c23d

fc2.weight f4 [84, 120]
-0.013724019 -0.01369395 -0.09682972 -0.09531966 0.0011573577 -0.072059184 0.025033424 0.07276298
-0.04398448 0.043612573 0.06435477 0.062252197 -0.073861174 0.0212132 -0.016433029 0.05650318
0.009329873 -0.10458239 -0.012123713 0.12477043 -0.065491095 0.03187386 -0.06182634 0.054925032
0.026808154 -0.03471652 0.0799995 -0.046799272 -0.00038526775 -0.081787355 0.05256136 -0.03352014
0.07551961 -0.093063906 0.04958293 -0.0028498084 0.0141612105 0.032439392 0.0562255 0.10399453
-0.07652311 0.02114577 -0.06935989 -0.09056972 -0.07646888 0.015117752 0.056015268 0.0049774516
0.010480979 -0.09916773 0.0126729 0.048591964 -0.03627477 0.00071394414 -0.0020425743 -0.07500756
-0.0121119665 -0.10699049 -0.07705528 0.061639246 0.0064219795 0.0632571 -0.022995584 -0.08766394
-0.045995314 0.04790355 0.09008886 0.033759665 -0.078577116 -0.01577096 0.022517294 0.06895276
-0.020861138 -0.07299644 0.020756 -0.018604733 -0.053700574 -0.10576058 -0.108275495 -0.043144826
-0.06594124 0.121155955 -0.09287599 -0.10821008 0.060167436 -0.048404925 0.09610121 0.029239824
-0.016716093 0.093279436 -0.016890613 0.048917376 0.058262732 -0.07115897 0.0397253 0.022692064
-0.081885666 0.050631974 -0.1201659 -0.06492244 0.007598233 -0.092419945 0.09305524 -0.012561627
0.06155621 -0.0632408 0.06467323 0.010543297 -0.07271162 0.041340284 0.026352584 -0.09956856
-0.033605967 0.053277504 -0.047656734 -0.09249779 0.018139247 -0.09011432 0.06544664 0.046379372
0.084911 -0.05846929 0.06503728 0.021690844 0.09992791 0.022684135 -0.007837535 0.04076666
-0.021129722 0.10379165 -0.051585272 -0.05952277 -0.044080302 -0.056079008 -0.02006519 -0.035552755
0.064116284 -0.049350195 -0.07929247 0.057881743 -0.08292406 0.04969458 0.09694299 -0.0679273
0.037614953 0.06493121 -0.06436087 -0.090662226 -0.084173195 0.09194416 -0.03777576 -0.044005327
-0.040808987 0.046105742 -0.039567884 -0.008028715 0.07929648 0.021638775 -0.035512082 -0.091396496
-0.02651418 0.029057046 -0.060514506 -0.03436972 -0.05253268 0.048925843 -0.029631158 -0.039043833
-0.04291641 0.040484928 -0.018585065 -0.021799779 -0.0043807286 0.055847395 -0.045946058 0.09088015
-0.1050872 0.08548131 -0.066795014 -0.044385638 -0.043297347 0.008142075 0.052594148 -0.005389489
0.10739407 0.043044157 0.02044185 0.017948112 0.03060453 -0.08431151 0.0529166 -0.07178706
-0.062361374 0.08450971 -0.07777714 0.059956025 0.06968879 0.072770625 0.018847844 -0.029683646
0.02940913 0.030817326 0.027112413 -0.08644415 -0.04910996 -0.036181018 0.046269447 0.030071067
-0.06921164 -0.0669961 0.04199375 0.023079978 0.01219341 0.0038303025 -0.059023052 -0.03444833
-0.08859848 -0.08261446 -0.03670818 -0.03473473 0.09267904 0.06428453 -0.07577876 0.028319394
-0.011099108 -0.035819612 -0.039378587 -0.04878257 -0.028499924 0.026591394 0.008396165 -0.061758935
-0.04344266 -0.03679547 -0.019531293 -0.014721756 -0.017608097 -0.068452775 -0.074055076 -0.062272567
-0.054557096 -0.067520544 -0.0825532 -0.11124907 0.041530684 -0.05618213 0.12932009 0.14046882
0.019844687 0.047782008 0.0003016714 -0.074771285 -0.001039675 0.09915392 -0.082472846 -0.014930172
00000000: b5da 60bc 975c 60bc a94e c6bd f436 c3bd
00000010: 7bb2 973a c493 93bd e512 cd3c c204 953d
00000020: 1229 34bd 19a3 323d 6fcc 833d 29fc 7e3d
00000030: 8744 97bd 4ec7 ad3c 8f9e 86bc e16f 673d
00000040: 53dc 183c 4b2f d6bd 8aa2 46bc a487 ff3d
00000050: 3220 86bd 2a8e 023d 9e3d 7dbd 12f9 603d
00000060: c69c db3c e932 0ebd c7d6 a33d 98b0 3fbd
00000070: c3fd c9b9 2180 a7bd 954a 573d 6a4c 09bd
00000080: 06aa 9a3d 4a98 bebd 7817 4b3d dac3 3abb
00000090: 6c04 683c 2bdf 043d b64c 663d 16fb d43d
000000a0: 26b8 9cbd e539 ad3c 8f0c 8ebd 9e7c b9bd
000000b0: b79b 9cbd 73b0 773c 4470 653d e419 a33b
000000c0: 6ab8 2b3c 7318 cbbd ffa1 4f3c 5e08 473d
000000d0: da94 14bd fb27 3b3a b6dc 05bb 909d 99bd
000000e0: 4571 46bc d41d dbbd 29cf 9dbd 6f79 7c3d
000000f0: 786f d23b f08c 813d 3c61 bcbc 2789 b3bd
00000100: 9565 3cbd 8336 443d 8280 b83d 9347 0a3d
00000110: 0aed a0bd 1a32 81bc 3076 b83c 1b37 8d3d
00000120: fae4 aabc 287f 95bd 7d08 aa3c f468 98bc
00000130: 22f5 5bbd 0199 d8bd 8bbf ddbd a1b8 30bd
00000140: 330c 87bd 9d20 f83d c435 bebd 3f9d ddbd
00000150: 2172 763d 3e44 46bd b6d0 c43d 5b88 ef3c
00000160: 30f0 88bc 4a09 bf3d 2f5e 8abc 965d 483d
00000170: e7a4 6e3d cbbb 91bd ffb6 223d b5e4 b93c
00000180: acb3 a7bd 7963 4f3d 8a19 f6bd 0ef6 84bd
00000190: 99fa f83b ab46 bdbd bf93 be3d 48cf 4dbc
000001a0: 5d22 7c3d 6484 81bd 6673 843d cbbd 2c3c
000001b0: d4e9 94bd 6e54 293d 60e1 d73c 9aea cbbd
000001c0: 69a6 09bd 8339 5a3d b533 43bd 7b6f bdbd
000001d0: c298 943c db8d b8bd e308 863d 4cf8 3d3d
000001e0: d2e5 ad3d 7f7d 6fbd 4432 853d ffb0 b13c
000001f0: 01a7 cc3d 14d4 b93c 0169 00bc f1fa 263d
00000200: 3d18 adbc b790 d43d 144b 53bd 26ce 73bd
00000210: 8c8d 34bd 1ab3 65bd c15f a4bc c49f 11bd
00000220: 664f 833d 6e23 4abd 1764 a2bd 6815 6d3d
00000230: 17d4 a9bd 8b8c 4b3d 0c8a c63d 781d 8bbd
00000240: 2312 1a3d a7fa 843d a2cf 83bd 1ead b9bd
00000250: ff62 acbd 384d bc3d c1ba 1abd ee3e 34bd
00000260: 5327 27bd 60d9 3c3d ef11 22bd df8a 03bc
00000270: 3166 a23d cd43 b13c 1e75 11bd 162e bbbd
00000280: 4434 d9bc 0b09 ee3c 0fde 77bd 43c7 0cbd
00000290: 822c 57bd 7766 483d 0bbd f2bc 6dec 1fbd
000002a0: 1ec9 2fbd 86d3 253d b53f 98bc 7395 b2bc
000002b0: 378c 8fbb 3dc0 643d ef31 3cbd 5f1f ba3d
000002c0: f537 d7bd d310 af3d d3cb 88bd b7cd 35bd
000002d0: 8f58 31bd 5666 053c f66c 573d 4f9a b0bb
000002e0: 6cf1 db3d 124f 303d ab75 a73c eb07 933c
000002f0: 5ab6 fa3c 83ab acbd 14bf 583d 1805 93bd
00000300: a46e 7fbd 6d13 ad3d 9f49 9fbd 7394 753d
00000310: ffb8 8e3d c408 953d cb66 9a3c 1e2b f3bc
00000320: 6aeb f03c 9e74 fc3c da1a de3c a109 b1bd
00000330: 8727 49bd 8c32 14bd 0885 3d3d 9957 f63c
00000340: d5be 8dbd 4035 89bd a301 2c3d 3912 bd3c
00000350: dec6 473c d005 7b3b 28c2 71bd b119 0dbd
00000360: 1f73 b5bd c531 a9bd 515b 16bd 0146 0ebd
00000370: 82ce bd3d 9ca7 833d e531 9bbd 13fe e73c
00000380: 08d9 35bc 96b7 12bd 714b 21bd 3bd0 47bd
00000390: ac78 e9bc 32d6 d93c 1290 093c f0f6 7cbd
000003a0: eef0 31bd d9b6 16bd 1700 a0bc 8533 71bc
000003b0: db3e 90bc f830 8cbd 30aa 97bd 8511 7fbd
000003c0: 4377 5fbd 3648 8abd a711 a9bd 8dd6 e3bd
000003d0: 141c 2a3d 3c1f 66bd 7c6c 043e 0fd7 0f3e
000003e0: 5391 a23c 11b7 433d a629 9e39 b021 99bd
000003f0: b445 88ba 3611 cb3d 86e7 a8bd ae9d 74bc

fc2.bias f4 [84]
0.08311745 0.03199903 -0.059282247 0.16707195 0.09030164 -0.12295472 0.45161673 -0.006849501
0.11959205 -0.008968394 0.084410496 -0.039645538 -0.010519313 0.06346859 0.28378677 0.017445888
0.002357672 0.07407198 0.12421788 0.2336078 -0.12031779 0.02222091 0.01507116 -0.20509638
0.07197621 -0.0065030316 0.2983859 -0.12144186 0.010299575 0.34848619 0.17629611 -0.08523602
-0.033689786 -0.04263984 0.099583454 0.20588955 0.20359035 0.005522551 0.097873 0.060237586
0.13826424 -0.09416482 0.22413214 0.13801661 0.06466648 0.01346832 -0.048736557 0.14394839
0.23996241 0.079185665 0.1977547 -0.060206793 -0.032261517 0.120181695 0.07350913 0.073341854
-0.002423472 0.23823088 -0.05419763 0.06770204 -0.04232408 -0.033878565 -0.03451235 0.019126877
-0.007548323 0.07743133 0.12956883 0.23030761 -0.058395147 0.23450881 0.23837517 -0.0006411454
0.12967667 0.15567939 0.2940855 -0.048865702 -0.03497665 0.22122844 -0.029322542 0.12692326
-0.0837997 0.15388536 0.048015233 0.11659145
00000000: 7b39 aa3d 6a11 033d f1d1 72bd e914 2b3e
00000010: 11f0 b83d afcf fbbd 4f3a e73e c771 e0bb
00000020: adec f43d 2cf0 12bc 69df ac3d 5c63 22bd
00000030: 3259 2cbc d2fb 813d 804c 913e aeea 8e3c
00000040: 2c83 1a3b 0db3 973d f265 fe3d e236 6f3e
00000050: 2c69 f6bd a008 b63c 07ed 763c c904 52be
00000060: 4368 933d 6217 d5bb 09c6 983e 83b6 f8bd
00000070: 8cbf 283c c86c b23e f886 343e 3990 aebd
00000080: 4dfe 09bd 1da7 2ebd 69f2 cb3d b6d4 523e
00000090: fd79 503e 84f6 b43b a471 c83d b0bb 763d
000000a0: 2495 0d3e 7cd9 c0bd e582 653e 3a54 0d3e
000000b0: dc6f 843d 3aaa 5c3c fc9f 47bd 3567 133e
000000c0: b5b8 753e 182c a23d 3580 4a3e 669b 76bd
000000d0: a724 04bd d221 f63d f48b 963d 4134 963d
000000e0: 1dd3 1ebb ccf2 733e 56fe 5dbd 5ea7 8a3d
000000f0: 045c 2dbd 40c4 0abd d25c 0dbd f8af 9c3c
00000100: ec57 f7bb 5194 9e3d b1ad 043e c2d5 6b3e
00000110: c02f 6fbd 1423 703e 9f18 743e 8a12 28ba
00000120: f6c9 043e 6b6a 1f3e 6092 963e 6727 48bd
00000130: ad43 0fbd b589 623e d435 f0bc 2cf8 013e
00000140: 2d9f abbd 2094 1d3e 9fab 443d 80c7 ee3d

fc3.weight f4 [10, 84]
-0.028653305 6.62998e-05 0.06477135 0.0019721917 0.09277622 0.13349664 -0.18551461 0.14828731
0.030886179 0.064098515 0.22878413 0.014375161 0.09307905 0.02679841 0.13364452 -0.08078502
0.070585564 -0.13642982 -0.06041104 0.014388449 0.13644387 -0.07480391 -0.053052824 0.1608596
0.018496323 0.019601228 -0.018713344 0.0033629313 -0.10674741 -0.27480122 0.1299999 0.02789722
-0.07206673 -0.10000191 -0.07698693 -0.008989393 0.16157134 0.00039633343 0.12616545 -0.009000437
0.01406323 0.0703847 0.14227004 -0.034051057 -0.104425184 0.2020011 -0.24844436 0.0020954704
-0.19636433 -0.17697436 0.11687919 -0.012648117 0.06760313 0.15261559 0.041209027 -0.25087082
-0.1308796 -0.15440084 0.046822812 -0.087038495 -0.12566625 -0.023495303 -0.047466014 -0.12874086
-0.06314868 0.15785277 0.088003986 0.12505123 0.009252121 -0.22445355 0.023460211 -0.06626452
0.17028537 0.23711899 0.31389233 0.14314787 0.12798615 0.0641057 0.08652519 -0.041595217
0.24383709 0.06814094 0.22708471 -0.025052164 0.10724321 -0.07770475 -0.10038706 -0.1264051
0.16173553 0.024707712 -0.14542343 -0.034195878 -0.28102854 -0.20259723 0.2874363 -0.024101885
0.30862004 -0.06841263 -0.06465713 0.09973949 -0.046884436 0.0065574474 -0.11947856 -0.043968335
0.2211578 0.08232349 0.0774193 0.3253446 0.10665017 -0.10748749 -0.16518728 0.18923819
-0.052701395 -0.17333722 -0.118387036 -0.0871583 -0.028840493 0.010022269 -0.15108527 -0.15514295
-0.016295493 -0.02964044 0.02386112 0.24606967 -0.13677086 0.08186232 0.23154937 0.17548923
0.0060997917 -0.18258648 0.24644823 0.14129494 -0.27778235 0.16644864 -0.23792914 0.23599343
0.012846914 0.0069167693 0.024135556 -0.058148637 -0.19457942 -0.067865014 -0.07653457 -0.035086356
-0.08065987 0.031908147 -0.041075986 0.15560916 0.03024342 -0.19531474 -0.19301721 -0.09505508
-0.08031623 -0.12517206 -0.20742288 -0.042249348 -0.093569726 -0.086112276 -0.041531883 0.0625559
-0.011113432 0.042589027 -0.032516547 -0.12648344 -0.05186147 0.0912996 0.16930796 -0.11115816
0.1293483 0.08323465 -0.050522864 0.12715217 -0.057010736 -0.05056558 0.18721722 -0.08265842
0.14888905 0.035431698 0.07653807 -0.058485933 -0.13153265 0.17476557 -0.1121169 0.058848
0.049605858 -0.07556021 0.062525995 -0.019158214 0.008456272 0.09389638 -0.14047901 -0.058924314
-0.13182797 0.027071165 0.20484763 -0.03979374 0.20977181 0.0041137026 -0.1626695 0.050081436
-0.06309931 0.1669764 0.015080824 0.21249129 0.01516136 -0.01239039 -0.075028665 -0.053799603
-0.04561059 -0.09275322 -0.16273944 -0.14412493 -0.10975633 0.23154981 -0.0789289 -0.11204963
-0.009658889 0.015354357 -0.055106565 -0.04632751 -0.068501934 0.11065154 -0.008821531 0.14862233
0.023656854 0.009063405 0.080413654 0.08907501 -0.12071553 -0.01576161 -0.020153474 -0.024115887
0.07023982 0.19750282 0.07874982 0.015008318 0.14771801 0.090609886 0.22271742 0.069051735
0.09987454 0.45881036 -0.14684616 -0.08644243 0.010985217 -0.097010024 0.020166637 -0.13798417
-0.08321495 0.177494 0.03158825 0.25488064 -0.009458741 0.044442058 0.02969944 0.007603676
00000000: 56ba eabc 6f0a 8b38 d7a6 843d e33f 013b
00000010: 7501 be3d 58b3 083e 8bf7 3dbe a1d8 173e
00000020: 0305 fd3c 1546 833d 6346 6a3e cc85 6b3c
00000030: 3ba0 be3d 5788 db3c 1cda 083e 9e72 a5bd
00000040: 2a8f 903d 42b4 0bbe 9171 77bd 87bd 6b3c
00000050: f1b7 0b3e cb32 99bd eb4d 59bd 61b8 243e
00000060: 9a85 973c c192 a03c ba4c 99bc a064 5c3b
00000070: 639e dabd bfb2 8cbe b21e 053e b688 e43c
00000080: b997 93bd cdcd ccbd 53ab 9dbd 3f48 13bc
00000090: f572 253e f9ca cf39 8431 013e 9276 13bc
000000a0: 7669 663c db25 903d 3daf 113e 1f79 0bbd
000000b0: dfdc d5bd 60d9 4e3e 3368 7ebe 2954 093b
000000c0: bb13 49be c438 35be 5b5e ef3d 0c3a 4fbc
000000d0: 8373 8a3d 4347 1c3e ccca 283d 2472 80be
000000e0: 4d05 06be 411b 1ebe 47c9 3f3d 3d41 b2bd
000000f0: a7ae 00be 3979 c0bc b96b 42bd a5d4 03be
00000100: 1854 81bd 28a4 213e 6f3b b43d 6e0d 003e
00000110: 3596 173c 27d7 65be a12f c03c b1b5 87bd
00000120: 4a5f 2e3e 52cf 723e 7fb6 a03e 5b95 123e
00000130: cd0e 033e d949 833d 1e34 b13d bf5f 2abd
00000140: 6eb0 793e 7a8d 8b3d e588 683e 323a cdbc
00000150: 54a2 db3d ab23 9fbd bb97 cdbd 5770 01be
00000160: 009e 253e d467 ca3c e1e9 14be fa10 0cbd
00000170: f9e2 8fbe a675 4fbe da2a 933e 5171 c5bc
00000180: 7203 9e3e ec1b 8cbd f56a 84bd 3844 cc3d
00000190: e509 40bd dbdf d63b 2db1 f4bd 2418 34bd
000001a0: 3177 623e 3899 a83d 038e 9e3d 9193 a63e
000001b0: 686b da3d 6722 dcbd db26 29be a8c7 413e
000001c0: 6bdd 57bd 507f 31be e774 f2bd 0d80 b2bd
000001d0: e642 ecbc 7134 243c 19b6 1abe cbdd 1ebe
000001e0: 207e 85bc 82d0 f2bc 6578 c33c b0f9 7b3e
000001f0: a90d 0cbe 6fa7 a73d 471b 6d3e 73b3 333e
00000200: c3e0 c73b f3f7 3abe ed5c 7c3e 9faf 103e
00000210: 7d39 8ebe 8371 2a3e b2a3 73be 43a8 713e
00000220: dd7b 523c 11a6 e23b eeb7 c53c 442d 6ebd
00000230: d43f 47be d0fc 8abd 28be 9cbd b6b6 0fbd
00000240: 0031 a5bd 1eb2 023d 4b3f 28bd 0258 1f3e
00000250: 0cc1 f73c 9600 48be 4ea6 45be 3dac c2bd
00000260: d67c a4bd 1b2d 00be aa66 54be a70d 2dbd
00000270: 7ca1 bfbd a25b b0bd 561d 2abd 4f1d 803d
00000280: 1d15 36bc d571 2e3d 1230 05bd e084 01be
00000290: b16c 54bd 49fb ba3d 115f 2d3e e4a6 e3bd
000002a0: e173 043e ee76 aa3d 10f1 4ebd 2e34 023e
000002b0: 1784 69bd db1d 4fbd dfb5 3f3e d148 a9bd
000002c0: 5f76 183e d420 113d febf 9c3d f28e 6fbd
000002d0: 7fb0 06be bff5 323e 8c9d e5bd 9a0a 713d
000002e0: 832f 4b3d 50bf 9abd a10d 803d b0f1 9cbc
000002f0: 2d8c 0a3c bf4c c03d bbd9 0fbe 9f5a 71bd
00000300: e9fd 06be 59c4 dd3c 94c3 513e c3fe 22bd
00000310: 6cce 563e 3dcc 863b d592 26be 3122 4d3d
00000320: 363a 81bd ddfb 2a3e 8f15 773c 5197 593e
00000330: 5a67 783c 1001 4bbc a1a8 99bd f95c 5cbd
00000340: 2cd2 3abd 66f5 bdbd 2ba5 26be 7c95 13be
00000350: edc7 e0bd 651b 6d3e 7aa5 a1bd 477a e5bd
00000360: 5140 1ebc d790 7b3c 6cb7 61bd eac1 3dbd
00000370: be4a 8cbd 469d e23d 2f88 10bc 7430 183e
00000380: 05cc c13c ad7e 143c eaaf a43d f56c b63d
00000390: b439 f7bd 7e1e 81bc e618 a5bc ae8e c5bc
000003a0: e5d9 8f3d 2e3e 4a3e 9647 a13d 73e5 753c
000003b0: 6443 173e ad91 b93d 0910 643e ff6a 8d3d
000003c0: 068b cc3d 31e9 ea3e d75e 16be bb08 b1bd
000003d0: 57fb 333c 31ad c6bd 8134 a53c b94b 0dbe
000003e0: 9a6c aabd fdc0 353e ae62 013d b77f 823e
000003f0: d6f8 1abc e008 363d 3d4c f33c 4228 f93b

fc3.bias f4 [10]
-0.2525717 -0.44302493 0.16246408 0.27122408 0.5124472 -0.14094788 0.1593389 -0.20465651
0.29323652 -0.232503
00000000: 1451 81be 2ad4 e2be fc5c 263e e2dd 8a3e
00000010: bd2f 033f a454 10be bd29 233e 7a91 51be
00000020: 1923 963e 4415 6ebe
